<?xml version="1.0" ?>
<net name="torch-jit-export" version="11">
	<layers>
		<layer id="12" name="actual_input" type="Parameter" version="opset1">
			<data shape="1,1,96,2000" element_type="f32"/>
			<rt_info>
				<attribute name="old_api_map_element_type" version="0" value="f16"/>
			</rt_info>
			<output>
				<port id="0" precision="FP32" names="actual_input">
					<dim>1</dim>
					<dim>1</dim>
					<dim>96</dim>
					<dim>2000</dim>
					<rt_info>
						<attribute name="layout" version="0" layout="[N,C,H,W]"/>
					</rt_info>
				</port>
			</output>
		</layer>
		<layer id="0" name="198719916252" type="Const" version="opset1">
			<data offset="0" size="4" shape="" element_type="f32"/>
			<output>
				<port id="0" precision="FP32"/>
			</output>
		</layer>
		<layer id="1" name="198819926687" type="Const" version="opset1">
			<data offset="4" size="4" shape="" element_type="f32"/>
			<output>
				<port id="0" precision="FP32"/>
			</output>
		</layer>
		<layer id="2" name="198919936375" type="Const" version="opset1">
			<data offset="0" size="4" shape="" element_type="f32"/>
			<output>
				<port id="0" precision="FP32"/>
			</output>
		</layer>
		<layer id="3" name="199019946531" type="Const" version="opset1">
			<data offset="4" size="4" shape="" element_type="f32"/>
			<output>
				<port id="0" precision="FP32"/>
			</output>
		</layer>
		<layer id="4" name="8938976555" type="Const" version="opset1">
			<data offset="0" size="4" shape="" element_type="f32"/>
			<output>
				<port id="0" precision="FP32"/>
			</output>
		</layer>
		<layer id="5" name="8948986387" type="Const" version="opset1">
			<data offset="8" size="4" shape="" element_type="f32"/>
			<output>
				<port id="0" precision="FP32"/>
			</output>
		</layer>
		<layer id="6" name="8958996336" type="Const" version="opset1">
			<data offset="0" size="4" shape="" element_type="f32"/>
			<output>
				<port id="0" precision="FP32"/>
			</output>
		</layer>
		<layer id="7" name="8969006177" type="Const" version="opset1">
			<data offset="8" size="4" shape="" element_type="f32"/>
			<output>
				<port id="0" precision="FP32"/>
			</output>
		</layer>
		<layer id="8" name="8738776234" type="Const" version="opset1">
			<data offset="12" size="4" shape="" element_type="f32"/>
			<output>
				<port id="0" precision="FP32"/>
			</output>
		</layer>
		<layer id="9" name="8748786087" type="Const" version="opset1">
			<data offset="16" size="4" shape="" element_type="f32"/>
			<output>
				<port id="0" precision="FP32"/>
			</output>
		</layer>
		<layer id="10" name="8758796255" type="Const" version="opset1">
			<data offset="12" size="4" shape="" element_type="f32"/>
			<output>
				<port id="0" precision="FP32"/>
			</output>
		</layer>
		<layer id="11" name="8768806207" type="Const" version="opset1">
			<data offset="16" size="4" shape="" element_type="f32"/>
			<output>
				<port id="0" precision="FP32"/>
			</output>
		</layer>
		<layer id="13" name="Constant_82462376282" type="Const" version="opset1">
			<data offset="20" size="2" shape="1,1,1,1" element_type="f16"/>
			<output>
				<port id="0" precision="FP16">
					<dim>1</dim>
					<dim>1</dim>
					<dim>1</dim>
					<dim>1</dim>
				</port>
			</output>
		</layer>
		<layer id="14" name="Constant_82462373400/restored_convert" type="Convert" version="opset1">
			<data destination_type="f32"/>
			<rt_info>
				<attribute name="decompression" version="0"/>
			</rt_info>
			<input>
				<port id="0">
					<dim>1</dim>
					<dim>1</dim>
					<dim>1</dim>
					<dim>1</dim>
				</port>
			</input>
			<output>
				<port id="1" precision="FP32">
					<dim>1</dim>
					<dim>1</dim>
					<dim>1</dim>
					<dim>1</dim>
				</port>
			</output>
		</layer>
		<layer id="15" name="Subtract_1460" type="Subtract" version="opset1">
			<data auto_broadcast="numpy"/>
			<rt_info>
				<attribute name="preprocessing" version="0"/>
			</rt_info>
			<input>
				<port id="0">
					<dim>1</dim>
					<dim>1</dim>
					<dim>96</dim>
					<dim>2000</dim>
				</port>
				<port id="1">
					<dim>1</dim>
					<dim>1</dim>
					<dim>1</dim>
					<dim>1</dim>
				</port>
			</input>
			<output>
				<port id="2" precision="FP32">
					<dim>1</dim>
					<dim>1</dim>
					<dim>96</dim>
					<dim>2000</dim>
				</port>
			</output>
		</layer>
		<layer id="16" name="Multiply_7764/fq_input_0" type="FakeQuantize" version="opset1">
			<data levels="256" auto_broadcast="numpy"/>
			<input>
				<port id="0">
					<dim>1</dim>
					<dim>1</dim>
					<dim>96</dim>
					<dim>2000</dim>
				</port>
				<port id="1"/>
				<port id="2"/>
				<port id="3"/>
				<port id="4"/>
			</input>
			<output>
				<port id="5" precision="FP32">
					<dim>1</dim>
					<dim>1</dim>
					<dim>96</dim>
					<dim>2000</dim>
				</port>
			</output>
		</layer>
		<layer id="17" name="Multiply_7764/fq_weights_1/scale44976567" type="Const" version="opset1">
			<data offset="22" size="256" shape="64,1,1,1" element_type="f32"/>
			<output>
				<port id="0" precision="FP32">
					<dim>64</dim>
					<dim>1</dim>
					<dim>1</dim>
					<dim>1</dim>
				</port>
			</output>
		</layer>
		<layer id="18" name="Multiply_79352403401/restored_convert/quantized44896663" type="Const" version="opset1">
			<data offset="278" size="576" shape="64,1,3,3" element_type="i8"/>
			<output>
				<port id="0" precision="I8">
					<dim>64</dim>
					<dim>1</dim>
					<dim>3</dim>
					<dim>3</dim>
				</port>
			</output>
		</layer>
		<layer id="19" name="Multiply_79352403401/restored_convert/quantized/to_f32" type="Convert" version="opset1">
			<data destination_type="f32"/>
			<input>
				<port id="0">
					<dim>64</dim>
					<dim>1</dim>
					<dim>3</dim>
					<dim>3</dim>
				</port>
			</input>
			<output>
				<port id="1" precision="FP32">
					<dim>64</dim>
					<dim>1</dim>
					<dim>3</dim>
					<dim>3</dim>
				</port>
			</output>
		</layer>
		<layer id="20" name="Multiply_7764/fq_weights_1/mulpiply_by_scale" type="Multiply" version="opset1">
			<data auto_broadcast="numpy"/>
			<input>
				<port id="0">
					<dim>64</dim>
					<dim>1</dim>
					<dim>3</dim>
					<dim>3</dim>
				</port>
				<port id="1">
					<dim>64</dim>
					<dim>1</dim>
					<dim>1</dim>
					<dim>1</dim>
				</port>
			</input>
			<output>
				<port id="2" precision="FP32">
					<dim>64</dim>
					<dim>1</dim>
					<dim>3</dim>
					<dim>3</dim>
				</port>
			</output>
		</layer>
		<layer id="21" name="Multiply_7764" type="Convolution" version="opset1">
			<data auto_pad="explicit" strides="1,1" dilations="1,1" pads_begin="1,1" pads_end="1,1"/>
			<rt_info>
				<attribute name="preprocessing" version="0"/>
			</rt_info>
			<input>
				<port id="0">
					<dim>1</dim>
					<dim>1</dim>
					<dim>96</dim>
					<dim>2000</dim>
				</port>
				<port id="1">
					<dim>64</dim>
					<dim>1</dim>
					<dim>3</dim>
					<dim>3</dim>
				</port>
			</input>
			<output>
				<port id="2" precision="FP32">
					<dim>1</dim>
					<dim>64</dim>
					<dim>96</dim>
					<dim>2000</dim>
				</port>
			</output>
		</layer>
		<layer id="22" name="Constant_77692436096" type="Const" version="opset1">
			<data offset="854" size="128" shape="1,64,1,1" element_type="f16"/>
			<output>
				<port id="0" precision="FP16">
					<dim>1</dim>
					<dim>64</dim>
					<dim>1</dim>
					<dim>1</dim>
				</port>
			</output>
		</layer>
		<layer id="23" name="Constant_77692433402/restored_convert" type="Convert" version="opset1">
			<data destination_type="f32"/>
			<rt_info>
				<attribute name="decompression" version="0"/>
			</rt_info>
			<input>
				<port id="0">
					<dim>1</dim>
					<dim>64</dim>
					<dim>1</dim>
					<dim>1</dim>
				</port>
			</input>
			<output>
				<port id="1" precision="FP32">
					<dim>1</dim>
					<dim>64</dim>
					<dim>1</dim>
					<dim>1</dim>
				</port>
			</output>
		</layer>
		<layer id="24" name="BatchNormalization_1" type="Add" version="opset1">
			<data auto_broadcast="numpy"/>
			<input>
				<port id="0">
					<dim>1</dim>
					<dim>64</dim>
					<dim>96</dim>
					<dim>2000</dim>
				</port>
				<port id="1">
					<dim>1</dim>
					<dim>64</dim>
					<dim>1</dim>
					<dim>1</dim>
				</port>
			</input>
			<output>
				<port id="2" precision="FP32" names="128">
					<dim>1</dim>
					<dim>64</dim>
					<dim>96</dim>
					<dim>2000</dim>
				</port>
			</output>
		</layer>
		<layer id="25" name="Relu_2" type="ReLU" version="opset1">
			<input>
				<port id="0">
					<dim>1</dim>
					<dim>64</dim>
					<dim>96</dim>
					<dim>2000</dim>
				</port>
			</input>
			<output>
				<port id="1" precision="FP32" names="129">
					<dim>1</dim>
					<dim>64</dim>
					<dim>96</dim>
					<dim>2000</dim>
				</port>
			</output>
		</layer>
		<layer id="26" name="Multiply_7774/fq_input_0" type="FakeQuantize" version="opset1">
			<data levels="256" auto_broadcast="numpy"/>
			<input>
				<port id="0">
					<dim>1</dim>
					<dim>64</dim>
					<dim>96</dim>
					<dim>2000</dim>
				</port>
				<port id="1"/>
				<port id="2"/>
				<port id="3"/>
				<port id="4"/>
			</input>
			<output>
				<port id="5" precision="FP32">
					<dim>1</dim>
					<dim>64</dim>
					<dim>96</dim>
					<dim>2000</dim>
				</port>
			</output>
		</layer>
		<layer id="27" name="Multiply_7774/fq_weights_1/scale45276684" type="Const" version="opset1">
			<data offset="982" size="256" shape="64,1,1,1" element_type="f32"/>
			<output>
				<port id="0" precision="FP32">
					<dim>64</dim>
					<dim>1</dim>
					<dim>1</dim>
					<dim>1</dim>
				</port>
			</output>
		</layer>
		<layer id="28" name="Multiply_79442473403/restored_convert/quantized45196324" type="Const" version="opset1">
			<data offset="1238" size="36864" shape="64,64,3,3" element_type="i8"/>
			<output>
				<port id="0" precision="I8">
					<dim>64</dim>
					<dim>64</dim>
					<dim>3</dim>
					<dim>3</dim>
				</port>
			</output>
		</layer>
		<layer id="29" name="Multiply_79442473403/restored_convert/quantized/to_f32" type="Convert" version="opset1">
			<data destination_type="f32"/>
			<input>
				<port id="0">
					<dim>64</dim>
					<dim>64</dim>
					<dim>3</dim>
					<dim>3</dim>
				</port>
			</input>
			<output>
				<port id="1" precision="FP32">
					<dim>64</dim>
					<dim>64</dim>
					<dim>3</dim>
					<dim>3</dim>
				</port>
			</output>
		</layer>
		<layer id="30" name="Multiply_7774/fq_weights_1/mulpiply_by_scale" type="Multiply" version="opset1">
			<data auto_broadcast="numpy"/>
			<input>
				<port id="0">
					<dim>64</dim>
					<dim>64</dim>
					<dim>3</dim>
					<dim>3</dim>
				</port>
				<port id="1">
					<dim>64</dim>
					<dim>1</dim>
					<dim>1</dim>
					<dim>1</dim>
				</port>
			</input>
			<output>
				<port id="2" precision="FP32">
					<dim>64</dim>
					<dim>64</dim>
					<dim>3</dim>
					<dim>3</dim>
				</port>
			</output>
		</layer>
		<layer id="31" name="Multiply_7774" type="Convolution" version="opset1">
			<data auto_pad="explicit" strides="1,1" dilations="1,1" pads_begin="1,1" pads_end="1,1"/>
			<input>
				<port id="0">
					<dim>1</dim>
					<dim>64</dim>
					<dim>96</dim>
					<dim>2000</dim>
				</port>
				<port id="1">
					<dim>64</dim>
					<dim>64</dim>
					<dim>3</dim>
					<dim>3</dim>
				</port>
			</input>
			<output>
				<port id="2" precision="FP32">
					<dim>1</dim>
					<dim>64</dim>
					<dim>96</dim>
					<dim>2000</dim>
				</port>
			</output>
		</layer>
		<layer id="32" name="Constant_77792506645" type="Const" version="opset1">
			<data offset="38102" size="128" shape="1,64,1,1" element_type="f16"/>
			<output>
				<port id="0" precision="FP16">
					<dim>1</dim>
					<dim>64</dim>
					<dim>1</dim>
					<dim>1</dim>
				</port>
			</output>
		</layer>
		<layer id="33" name="Constant_77792503404/restored_convert" type="Convert" version="opset1">
			<data destination_type="f32"/>
			<rt_info>
				<attribute name="decompression" version="0"/>
			</rt_info>
			<input>
				<port id="0">
					<dim>1</dim>
					<dim>64</dim>
					<dim>1</dim>
					<dim>1</dim>
				</port>
			</input>
			<output>
				<port id="1" precision="FP32">
					<dim>1</dim>
					<dim>64</dim>
					<dim>1</dim>
					<dim>1</dim>
				</port>
			</output>
		</layer>
		<layer id="34" name="BatchNormalization_4" type="Add" version="opset1">
			<data auto_broadcast="numpy"/>
			<input>
				<port id="0">
					<dim>1</dim>
					<dim>64</dim>
					<dim>96</dim>
					<dim>2000</dim>
				</port>
				<port id="1">
					<dim>1</dim>
					<dim>64</dim>
					<dim>1</dim>
					<dim>1</dim>
				</port>
			</input>
			<output>
				<port id="2" precision="FP32" names="131">
					<dim>1</dim>
					<dim>64</dim>
					<dim>96</dim>
					<dim>2000</dim>
				</port>
			</output>
		</layer>
		<layer id="35" name="Relu_5" type="ReLU" version="opset1">
			<input>
				<port id="0">
					<dim>1</dim>
					<dim>64</dim>
					<dim>96</dim>
					<dim>2000</dim>
				</port>
			</input>
			<output>
				<port id="1" precision="FP32" names="132">
					<dim>1</dim>
					<dim>64</dim>
					<dim>96</dim>
					<dim>2000</dim>
				</port>
			</output>
		</layer>
		<layer id="36" name="MaxPool_6/fq_input_0" type="FakeQuantize" version="opset1">
			<data levels="256" auto_broadcast="numpy"/>
			<input>
				<port id="0">
					<dim>1</dim>
					<dim>64</dim>
					<dim>96</dim>
					<dim>2000</dim>
				</port>
				<port id="1"/>
				<port id="2"/>
				<port id="3"/>
				<port id="4"/>
			</input>
			<output>
				<port id="5" precision="FP32">
					<dim>1</dim>
					<dim>64</dim>
					<dim>96</dim>
					<dim>2000</dim>
				</port>
			</output>
		</layer>
		<layer id="37" name="MaxPool_6" type="MaxPool" version="opset8">
			<data strides="2,2" kernel="2,2" pads_begin="0,0" pads_end="0,0" rounding_type="floor" auto_pad="explicit" dilations="1,1" axis="0" index_element_type="i64"/>
			<input>
				<port id="0">
					<dim>1</dim>
					<dim>64</dim>
					<dim>96</dim>
					<dim>2000</dim>
				</port>
			</input>
			<output>
				<port id="1" precision="FP32" names="133">
					<dim>1</dim>
					<dim>64</dim>
					<dim>48</dim>
					<dim>1000</dim>
				</port>
				<port id="2" precision="FP32">
					<dim>1</dim>
					<dim>64</dim>
					<dim>48</dim>
					<dim>1000</dim>
					<rt_info/>
				</port>
			</output>
		</layer>
		<layer id="39" name="200720116018" type="Const" version="opset1">
			<data offset="0" size="4" shape="" element_type="f32"/>
			<output>
				<port id="0" precision="FP32"/>
			</output>
		</layer>
		<layer id="40" name="200820126225" type="Const" version="opset1">
			<data offset="38230" size="4" shape="" element_type="f32"/>
			<output>
				<port id="0" precision="FP32"/>
			</output>
		</layer>
		<layer id="41" name="200920136279" type="Const" version="opset1">
			<data offset="0" size="4" shape="" element_type="f32"/>
			<output>
				<port id="0" precision="FP32"/>
			</output>
		</layer>
		<layer id="42" name="201020145991" type="Const" version="opset1">
			<data offset="38230" size="4" shape="" element_type="f32"/>
			<output>
				<port id="0" precision="FP32"/>
			</output>
		</layer>
		<layer id="43" name="130313076606" type="Const" version="opset1">
			<data offset="0" size="4" shape="" element_type="f32"/>
			<output>
				<port id="0" precision="FP32"/>
			</output>
		</layer>
		<layer id="44" name="130413086528" type="Const" version="opset1">
			<data offset="38234" size="4" shape="" element_type="f32"/>
			<output>
				<port id="0" precision="FP32"/>
			</output>
		</layer>
		<layer id="45" name="130513096612" type="Const" version="opset1">
			<data offset="0" size="4" shape="" element_type="f32"/>
			<output>
				<port id="0" precision="FP32"/>
			</output>
		</layer>
		<layer id="46" name="130613106042" type="Const" version="opset1">
			<data offset="38234" size="4" shape="" element_type="f32"/>
			<output>
				<port id="0" precision="FP32"/>
			</output>
		</layer>
		<layer id="47" name="132313276195" type="Const" version="opset1">
			<data offset="38238" size="4" shape="" element_type="f32"/>
			<output>
				<port id="0" precision="FP32"/>
			</output>
		</layer>
		<layer id="48" name="132413286564" type="Const" version="opset1">
			<data offset="38242" size="4" shape="" element_type="f32"/>
			<output>
				<port id="0" precision="FP32"/>
			</output>
		</layer>
		<layer id="49" name="132513296258" type="Const" version="opset1">
			<data offset="38238" size="4" shape="" element_type="f32"/>
			<output>
				<port id="0" precision="FP32"/>
			</output>
		</layer>
		<layer id="50" name="132613306027" type="Const" version="opset1">
			<data offset="38242" size="4" shape="" element_type="f32"/>
			<output>
				<port id="0" precision="FP32"/>
			</output>
		</layer>
		<layer id="51" name="196719715952" type="Const" version="opset1">
			<data offset="0" size="4" shape="" element_type="f32"/>
			<output>
				<port id="0" precision="FP32"/>
			</output>
		</layer>
		<layer id="52" name="196819726309" type="Const" version="opset1">
			<data offset="38246" size="4" shape="" element_type="f32"/>
			<output>
				<port id="0" precision="FP32"/>
			</output>
		</layer>
		<layer id="53" name="196919736522" type="Const" version="opset1">
			<data offset="0" size="4" shape="" element_type="f32"/>
			<output>
				<port id="0" precision="FP32"/>
			</output>
		</layer>
		<layer id="54" name="197019746141" type="Const" version="opset1">
			<data offset="38246" size="4" shape="" element_type="f32"/>
			<output>
				<port id="0" precision="FP32"/>
			</output>
		</layer>
		<layer id="55" name="136313676288" type="Const" version="opset1">
			<data offset="0" size="4" shape="" element_type="f32"/>
			<output>
				<port id="0" precision="FP32"/>
			</output>
		</layer>
		<layer id="56" name="136413686015" type="Const" version="opset1">
			<data offset="38250" size="4" shape="" element_type="f32"/>
			<output>
				<port id="0" precision="FP32"/>
			</output>
		</layer>
		<layer id="57" name="136513696441" type="Const" version="opset1">
			<data offset="0" size="4" shape="" element_type="f32"/>
			<output>
				<port id="0" precision="FP32"/>
			</output>
		</layer>
		<layer id="58" name="136613706069" type="Const" version="opset1">
			<data offset="38250" size="4" shape="" element_type="f32"/>
			<output>
				<port id="0" precision="FP32"/>
			</output>
		</layer>
		<layer id="59" name="191719216012" type="Const" version="opset1">
			<data offset="38254" size="4" shape="" element_type="f32"/>
			<output>
				<port id="0" precision="FP32"/>
			</output>
		</layer>
		<layer id="60" name="191819226108" type="Const" version="opset1">
			<data offset="38258" size="4" shape="" element_type="f32"/>
			<output>
				<port id="0" precision="FP32"/>
			</output>
		</layer>
		<layer id="61" name="191919236126" type="Const" version="opset1">
			<data offset="38254" size="4" shape="" element_type="f32"/>
			<output>
				<port id="0" precision="FP32"/>
			</output>
		</layer>
		<layer id="62" name="192019246507" type="Const" version="opset1">
			<data offset="38258" size="4" shape="" element_type="f32"/>
			<output>
				<port id="0" precision="FP32"/>
			</output>
		</layer>
		<layer id="63" name="102310275979" type="Const" version="opset1">
			<data offset="38262" size="4" shape="" element_type="f32"/>
			<output>
				<port id="0" precision="FP32"/>
			</output>
		</layer>
		<layer id="64" name="102410286510" type="Const" version="opset1">
			<data offset="38266" size="4" shape="" element_type="f32"/>
			<output>
				<port id="0" precision="FP32"/>
			</output>
		</layer>
		<layer id="65" name="102510295964" type="Const" version="opset1">
			<data offset="38262" size="4" shape="" element_type="f32"/>
			<output>
				<port id="0" precision="FP32"/>
			</output>
		</layer>
		<layer id="66" name="102610306315" type="Const" version="opset1">
			<data offset="38266" size="4" shape="" element_type="f32"/>
			<output>
				<port id="0" precision="FP32"/>
			</output>
		</layer>
		<layer id="67" name="144314476408" type="Const" version="opset1">
			<data offset="0" size="4" shape="" element_type="f32"/>
			<output>
				<port id="0" precision="FP32"/>
			</output>
		</layer>
		<layer id="68" name="144414486114" type="Const" version="opset1">
			<data offset="38270" size="4" shape="" element_type="f32"/>
			<output>
				<port id="0" precision="FP32"/>
			</output>
		</layer>
		<layer id="69" name="144514496243" type="Const" version="opset1">
			<data offset="0" size="4" shape="" element_type="f32"/>
			<output>
				<port id="0" precision="FP32"/>
			</output>
		</layer>
		<layer id="70" name="144614506180" type="Const" version="opset1">
			<data offset="38270" size="4" shape="" element_type="f32"/>
			<output>
				<port id="0" precision="FP32"/>
			</output>
		</layer>
		<layer id="71" name="Multiply_7784/fq_weights_1/scale42576423" type="Const" version="opset1">
			<data offset="38274" size="512" shape="128,1,1,1" element_type="f32"/>
			<output>
				<port id="0" precision="FP32">
					<dim>128</dim>
					<dim>1</dim>
					<dim>1</dim>
					<dim>1</dim>
				</port>
			</output>
		</layer>
		<layer id="72" name="Multiply_79532553405/restored_convert/quantized42496162" type="Const" version="opset1">
			<data offset="38786" size="73728" shape="128,64,3,3" element_type="i8"/>
			<output>
				<port id="0" precision="I8">
					<dim>128</dim>
					<dim>64</dim>
					<dim>3</dim>
					<dim>3</dim>
				</port>
			</output>
		</layer>
		<layer id="73" name="Multiply_79532553405/restored_convert/quantized/to_f32" type="Convert" version="opset1">
			<data destination_type="f32"/>
			<input>
				<port id="0">
					<dim>128</dim>
					<dim>64</dim>
					<dim>3</dim>
					<dim>3</dim>
				</port>
			</input>
			<output>
				<port id="1" precision="FP32">
					<dim>128</dim>
					<dim>64</dim>
					<dim>3</dim>
					<dim>3</dim>
				</port>
			</output>
		</layer>
		<layer id="74" name="Multiply_7784/fq_weights_1/mulpiply_by_scale" type="Multiply" version="opset1">
			<data auto_broadcast="numpy"/>
			<input>
				<port id="0">
					<dim>128</dim>
					<dim>64</dim>
					<dim>3</dim>
					<dim>3</dim>
				</port>
				<port id="1">
					<dim>128</dim>
					<dim>1</dim>
					<dim>1</dim>
					<dim>1</dim>
				</port>
			</input>
			<output>
				<port id="2" precision="FP32">
					<dim>128</dim>
					<dim>64</dim>
					<dim>3</dim>
					<dim>3</dim>
				</port>
			</output>
		</layer>
		<layer id="75" name="Multiply_7784" type="Convolution" version="opset1">
			<data auto_pad="explicit" strides="1,1" dilations="1,1" pads_begin="1,1" pads_end="1,1"/>
			<input>
				<port id="0">
					<dim>1</dim>
					<dim>64</dim>
					<dim>48</dim>
					<dim>1000</dim>
				</port>
				<port id="1">
					<dim>128</dim>
					<dim>64</dim>
					<dim>3</dim>
					<dim>3</dim>
				</port>
			</input>
			<output>
				<port id="2" precision="FP32">
					<dim>1</dim>
					<dim>128</dim>
					<dim>48</dim>
					<dim>1000</dim>
				</port>
			</output>
		</layer>
		<layer id="76" name="Constant_77892586600" type="Const" version="opset1">
			<data offset="112514" size="256" shape="1,128,1,1" element_type="f16"/>
			<output>
				<port id="0" precision="FP16">
					<dim>1</dim>
					<dim>128</dim>
					<dim>1</dim>
					<dim>1</dim>
				</port>
			</output>
		</layer>
		<layer id="77" name="Constant_77892583406/restored_convert" type="Convert" version="opset1">
			<data destination_type="f32"/>
			<rt_info>
				<attribute name="decompression" version="0"/>
			</rt_info>
			<input>
				<port id="0">
					<dim>1</dim>
					<dim>128</dim>
					<dim>1</dim>
					<dim>1</dim>
				</port>
			</input>
			<output>
				<port id="1" precision="FP32">
					<dim>1</dim>
					<dim>128</dim>
					<dim>1</dim>
					<dim>1</dim>
				</port>
			</output>
		</layer>
		<layer id="78" name="BatchNormalization_8" type="Add" version="opset1">
			<data auto_broadcast="numpy"/>
			<input>
				<port id="0">
					<dim>1</dim>
					<dim>128</dim>
					<dim>48</dim>
					<dim>1000</dim>
				</port>
				<port id="1">
					<dim>1</dim>
					<dim>128</dim>
					<dim>1</dim>
					<dim>1</dim>
				</port>
			</input>
			<output>
				<port id="2" precision="FP32" names="135">
					<dim>1</dim>
					<dim>128</dim>
					<dim>48</dim>
					<dim>1000</dim>
				</port>
			</output>
		</layer>
		<layer id="79" name="Relu_9" type="ReLU" version="opset1">
			<input>
				<port id="0">
					<dim>1</dim>
					<dim>128</dim>
					<dim>48</dim>
					<dim>1000</dim>
				</port>
			</input>
			<output>
				<port id="1" precision="FP32" names="136">
					<dim>1</dim>
					<dim>128</dim>
					<dim>48</dim>
					<dim>1000</dim>
				</port>
			</output>
		</layer>
		<layer id="80" name="Multiply_7794/fq_input_0" type="FakeQuantize" version="opset1">
			<data levels="256" auto_broadcast="numpy"/>
			<input>
				<port id="0">
					<dim>1</dim>
					<dim>128</dim>
					<dim>48</dim>
					<dim>1000</dim>
				</port>
				<port id="1"/>
				<port id="2"/>
				<port id="3"/>
				<port id="4"/>
			</input>
			<output>
				<port id="5" precision="FP32">
					<dim>1</dim>
					<dim>128</dim>
					<dim>48</dim>
					<dim>1000</dim>
				</port>
			</output>
		</layer>
		<layer id="81" name="Multiply_7794/fq_weights_1/scale43176348" type="Const" version="opset1">
			<data offset="112770" size="512" shape="128,1,1,1" element_type="f32"/>
			<output>
				<port id="0" precision="FP32">
					<dim>128</dim>
					<dim>1</dim>
					<dim>1</dim>
					<dim>1</dim>
				</port>
			</output>
		</layer>
		<layer id="82" name="Multiply_79622623407/restored_convert/quantized43096093" type="Const" version="opset1">
			<data offset="113282" size="147456" shape="128,128,3,3" element_type="i8"/>
			<output>
				<port id="0" precision="I8">
					<dim>128</dim>
					<dim>128</dim>
					<dim>3</dim>
					<dim>3</dim>
				</port>
			</output>
		</layer>
		<layer id="83" name="Multiply_79622623407/restored_convert/quantized/to_f32" type="Convert" version="opset1">
			<data destination_type="f32"/>
			<input>
				<port id="0">
					<dim>128</dim>
					<dim>128</dim>
					<dim>3</dim>
					<dim>3</dim>
				</port>
			</input>
			<output>
				<port id="1" precision="FP32">
					<dim>128</dim>
					<dim>128</dim>
					<dim>3</dim>
					<dim>3</dim>
				</port>
			</output>
		</layer>
		<layer id="84" name="Multiply_7794/fq_weights_1/mulpiply_by_scale" type="Multiply" version="opset1">
			<data auto_broadcast="numpy"/>
			<input>
				<port id="0">
					<dim>128</dim>
					<dim>128</dim>
					<dim>3</dim>
					<dim>3</dim>
				</port>
				<port id="1">
					<dim>128</dim>
					<dim>1</dim>
					<dim>1</dim>
					<dim>1</dim>
				</port>
			</input>
			<output>
				<port id="2" precision="FP32">
					<dim>128</dim>
					<dim>128</dim>
					<dim>3</dim>
					<dim>3</dim>
				</port>
			</output>
		</layer>
		<layer id="85" name="Multiply_7794" type="Convolution" version="opset1">
			<data auto_pad="explicit" strides="1,1" dilations="1,1" pads_begin="1,1" pads_end="1,1"/>
			<input>
				<port id="0">
					<dim>1</dim>
					<dim>128</dim>
					<dim>48</dim>
					<dim>1000</dim>
				</port>
				<port id="1">
					<dim>128</dim>
					<dim>128</dim>
					<dim>3</dim>
					<dim>3</dim>
				</port>
			</input>
			<output>
				<port id="2" precision="FP32">
					<dim>1</dim>
					<dim>128</dim>
					<dim>48</dim>
					<dim>1000</dim>
				</port>
			</output>
		</layer>
		<layer id="86" name="Constant_77992656246" type="Const" version="opset1">
			<data offset="260738" size="256" shape="1,128,1,1" element_type="f16"/>
			<output>
				<port id="0" precision="FP16">
					<dim>1</dim>
					<dim>128</dim>
					<dim>1</dim>
					<dim>1</dim>
				</port>
			</output>
		</layer>
		<layer id="87" name="Constant_77992653408/restored_convert" type="Convert" version="opset1">
			<data destination_type="f32"/>
			<rt_info>
				<attribute name="decompression" version="0"/>
			</rt_info>
			<input>
				<port id="0">
					<dim>1</dim>
					<dim>128</dim>
					<dim>1</dim>
					<dim>1</dim>
				</port>
			</input>
			<output>
				<port id="1" precision="FP32">
					<dim>1</dim>
					<dim>128</dim>
					<dim>1</dim>
					<dim>1</dim>
				</port>
			</output>
		</layer>
		<layer id="88" name="BatchNormalization_11" type="Add" version="opset1">
			<data auto_broadcast="numpy"/>
			<input>
				<port id="0">
					<dim>1</dim>
					<dim>128</dim>
					<dim>48</dim>
					<dim>1000</dim>
				</port>
				<port id="1">
					<dim>1</dim>
					<dim>128</dim>
					<dim>1</dim>
					<dim>1</dim>
				</port>
			</input>
			<output>
				<port id="2" precision="FP32" names="138">
					<dim>1</dim>
					<dim>128</dim>
					<dim>48</dim>
					<dim>1000</dim>
				</port>
			</output>
		</layer>
		<layer id="89" name="GlobalAveragePool_18/fq_input_0" type="FakeQuantize" version="opset1">
			<data levels="256" auto_broadcast="numpy"/>
			<input>
				<port id="0">
					<dim>1</dim>
					<dim>128</dim>
					<dim>48</dim>
					<dim>1000</dim>
				</port>
				<port id="1"/>
				<port id="2"/>
				<port id="3"/>
				<port id="4"/>
			</input>
			<output>
				<port id="5" precision="FP32">
					<dim>1</dim>
					<dim>128</dim>
					<dim>48</dim>
					<dim>1000</dim>
				</port>
			</output>
		</layer>
		<layer id="90" name="Range_333267" type="Const" version="opset1">
			<data offset="260994" size="16" shape="2" element_type="i64"/>
			<output>
				<port id="0" precision="I64">
					<dim>2</dim>
				</port>
			</output>
		</layer>
		<layer id="91" name="GlobalAveragePool_18" type="ReduceMean" version="opset1">
			<data keep_dims="true"/>
			<input>
				<port id="0">
					<dim>1</dim>
					<dim>128</dim>
					<dim>48</dim>
					<dim>1000</dim>
				</port>
				<port id="1">
					<dim>2</dim>
				</port>
			</input>
			<output>
				<port id="2" precision="FP32" names="145">
					<dim>1</dim>
					<dim>128</dim>
					<dim>1</dim>
					<dim>1</dim>
				</port>
			</output>
		</layer>
		<layer id="92" name="Reshape_22/fq_input_0" type="FakeQuantize" version="opset1">
			<data levels="256" auto_broadcast="numpy"/>
			<input>
				<port id="0">
					<dim>1</dim>
					<dim>128</dim>
					<dim>1</dim>
					<dim>1</dim>
				</port>
				<port id="1"/>
				<port id="2"/>
				<port id="3"/>
				<port id="4"/>
			</input>
			<output>
				<port id="5" precision="FP32">
					<dim>1</dim>
					<dim>128</dim>
					<dim>1</dim>
					<dim>1</dim>
				</port>
			</output>
		</layer>
		<layer id="93" name="Shape_12" type="ShapeOf" version="opset3">
			<data output_type="i64"/>
			<input>
				<port id="0">
					<dim>1</dim>
					<dim>128</dim>
					<dim>48</dim>
					<dim>1000</dim>
				</port>
			</input>
			<output>
				<port id="1" precision="I64" names="139,142,164">
					<dim>4</dim>
				</port>
			</output>
		</layer>
		<layer id="94" name="Constant_5102270" type="Const" version="opset1">
			<data offset="261010" size="8" shape="2" element_type="i32"/>
			<output>
				<port id="0" precision="I32">
					<dim>2</dim>
				</port>
			</output>
		</layer>
		<layer id="95" name="Constant_5103271" type="Const" version="opset1">
			<data offset="261018" size="8" shape="" element_type="i64"/>
			<output>
				<port id="0" precision="I64"/>
			</output>
		</layer>
		<layer id="96" name="Gather_5104" type="Gather" version="opset8">
			<data batch_dims="0"/>
			<input>
				<port id="0">
					<dim>4</dim>
				</port>
				<port id="1">
					<dim>2</dim>
				</port>
				<port id="2"/>
			</input>
			<output>
				<port id="3" precision="I64" names="148">
					<dim>2</dim>
				</port>
			</output>
		</layer>
		<layer id="97" name="Reshape_22" type="Reshape" version="opset1">
			<data special_zero="true"/>
			<input>
				<port id="0">
					<dim>1</dim>
					<dim>128</dim>
					<dim>1</dim>
					<dim>1</dim>
				</port>
				<port id="1">
					<dim>2</dim>
				</port>
			</input>
			<output>
				<port id="2" precision="FP32" names="149">
					<dim>1</dim>
					<dim>128</dim>
				</port>
			</output>
		</layer>
		<layer id="98" name="MatMul_23/fq_weights_1/scale40476261" type="Const" version="opset1">
			<data offset="261026" size="64" shape="16,1" element_type="f32"/>
			<output>
				<port id="0" precision="FP32">
					<dim>16</dim>
					<dim>1</dim>
				</port>
			</output>
		</layer>
		<layer id="99" name="Constant_55412753412/restored_convert/quantized40396381" type="Const" version="opset1">
			<data offset="261090" size="2048" shape="16,128" element_type="i8"/>
			<output>
				<port id="0" precision="I8">
					<dim>16</dim>
					<dim>128</dim>
				</port>
			</output>
		</layer>
		<layer id="100" name="Constant_55412753412/restored_convert/quantized/to_f32" type="Convert" version="opset1">
			<data destination_type="f32"/>
			<input>
				<port id="0">
					<dim>16</dim>
					<dim>128</dim>
				</port>
			</input>
			<output>
				<port id="1" precision="FP32">
					<dim>16</dim>
					<dim>128</dim>
				</port>
			</output>
		</layer>
		<layer id="101" name="MatMul_23/fq_weights_1/mulpiply_by_scale" type="Multiply" version="opset1">
			<data auto_broadcast="numpy"/>
			<input>
				<port id="0">
					<dim>16</dim>
					<dim>128</dim>
				</port>
				<port id="1">
					<dim>16</dim>
					<dim>1</dim>
				</port>
			</input>
			<output>
				<port id="2" precision="FP32">
					<dim>16</dim>
					<dim>128</dim>
				</port>
			</output>
		</layer>
		<layer id="102" name="MatMul_23" type="MatMul" version="opset1">
			<data transpose_a="false" transpose_b="true"/>
			<input>
				<port id="0">
					<dim>1</dim>
					<dim>128</dim>
				</port>
				<port id="1">
					<dim>16</dim>
					<dim>128</dim>
				</port>
			</input>
			<output>
				<port id="2" precision="FP32" names="151">
					<dim>1</dim>
					<dim>16</dim>
				</port>
			</output>
		</layer>
		<layer id="103" name="Relu_24" type="ReLU" version="opset1">
			<input>
				<port id="0">
					<dim>1</dim>
					<dim>16</dim>
				</port>
			</input>
			<output>
				<port id="1" precision="FP32" names="152">
					<dim>1</dim>
					<dim>16</dim>
				</port>
			</output>
		</layer>
		<layer id="104" name="MatMul_25/fq_input_0" type="FakeQuantize" version="opset1">
			<data levels="256" auto_broadcast="numpy"/>
			<input>
				<port id="0">
					<dim>1</dim>
					<dim>16</dim>
				</port>
				<port id="1"/>
				<port id="2"/>
				<port id="3"/>
				<port id="4"/>
			</input>
			<output>
				<port id="5" precision="FP32">
					<dim>1</dim>
					<dim>16</dim>
				</port>
			</output>
		</layer>
		<layer id="105" name="MatMul_25/fq_weights_1/scale39276411" type="Const" version="opset1">
			<data offset="263138" size="512" shape="128,1" element_type="f32"/>
			<output>
				<port id="0" precision="FP32">
					<dim>128</dim>
					<dim>1</dim>
				</port>
			</output>
		</layer>
		<layer id="106" name="Constant_55482793413/restored_convert/quantized39196000" type="Const" version="opset1">
			<data offset="263650" size="2048" shape="128,16" element_type="i8"/>
			<output>
				<port id="0" precision="I8">
					<dim>128</dim>
					<dim>16</dim>
				</port>
			</output>
		</layer>
		<layer id="107" name="Constant_55482793413/restored_convert/quantized/to_f32" type="Convert" version="opset1">
			<data destination_type="f32"/>
			<input>
				<port id="0">
					<dim>128</dim>
					<dim>16</dim>
				</port>
			</input>
			<output>
				<port id="1" precision="FP32">
					<dim>128</dim>
					<dim>16</dim>
				</port>
			</output>
		</layer>
		<layer id="108" name="MatMul_25/fq_weights_1/mulpiply_by_scale" type="Multiply" version="opset1">
			<data auto_broadcast="numpy"/>
			<input>
				<port id="0">
					<dim>128</dim>
					<dim>16</dim>
				</port>
				<port id="1">
					<dim>128</dim>
					<dim>1</dim>
				</port>
			</input>
			<output>
				<port id="2" precision="FP32">
					<dim>128</dim>
					<dim>16</dim>
				</port>
			</output>
		</layer>
		<layer id="109" name="MatMul_25" type="MatMul" version="opset1">
			<data transpose_a="false" transpose_b="true"/>
			<input>
				<port id="0">
					<dim>1</dim>
					<dim>16</dim>
				</port>
				<port id="1">
					<dim>128</dim>
					<dim>16</dim>
				</port>
			</input>
			<output>
				<port id="2" precision="FP32" names="154">
					<dim>1</dim>
					<dim>128</dim>
				</port>
			</output>
		</layer>
		<layer id="110" name="Sigmoid_26" type="Sigmoid" version="opset1">
			<input>
				<port id="0">
					<dim>1</dim>
					<dim>128</dim>
				</port>
			</input>
			<output>
				<port id="1" precision="FP32" names="155">
					<dim>1</dim>
					<dim>128</dim>
				</port>
			</output>
		</layer>
		<layer id="111" name="Reshape_30/fq_input_0" type="FakeQuantize" version="opset1">
			<data levels="256" auto_broadcast="numpy"/>
			<input>
				<port id="0">
					<dim>1</dim>
					<dim>128</dim>
				</port>
				<port id="1"/>
				<port id="2"/>
				<port id="3"/>
				<port id="4"/>
			</input>
			<output>
				<port id="5" precision="FP32">
					<dim>1</dim>
					<dim>128</dim>
				</port>
			</output>
		</layer>
		<layer id="112" name="Constant_5106282" type="Const" version="opset1">
			<data offset="261010" size="8" shape="2" element_type="i32"/>
			<output>
				<port id="0" precision="I32">
					<dim>2</dim>
				</port>
			</output>
		</layer>
		<layer id="113" name="Constant_5107283" type="Const" version="opset1">
			<data offset="261018" size="8" shape="" element_type="i64"/>
			<output>
				<port id="0" precision="I64"/>
			</output>
		</layer>
		<layer id="114" name="Gather_5108" type="Gather" version="opset8">
			<data batch_dims="0"/>
			<input>
				<port id="0">
					<dim>4</dim>
				</port>
				<port id="1">
					<dim>2</dim>
				</port>
				<port id="2"/>
			</input>
			<output>
				<port id="3" precision="I64">
					<dim>2</dim>
				</port>
			</output>
		</layer>
		<layer id="115" name="3052856153" type="Const" version="opset1">
			<data offset="265698" size="8" shape="1" element_type="i64"/>
			<output>
				<port id="0" precision="I64" names="305">
					<dim>1</dim>
				</port>
			</output>
		</layer>
		<layer id="116" name="3062865940" type="Const" version="opset1">
			<data offset="265698" size="8" shape="1" element_type="i64"/>
			<output>
				<port id="0" precision="I64" names="306">
					<dim>1</dim>
				</port>
			</output>
		</layer>
		<layer id="117" name="Concat_29" type="Concat" version="opset1">
			<data axis="0"/>
			<input>
				<port id="0">
					<dim>2</dim>
				</port>
				<port id="1">
					<dim>1</dim>
				</port>
				<port id="2">
					<dim>1</dim>
				</port>
			</input>
			<output>
				<port id="3" precision="I64" names="162">
					<dim>4</dim>
				</port>
			</output>
		</layer>
		<layer id="118" name="Reshape_30" type="Reshape" version="opset1">
			<data special_zero="true"/>
			<input>
				<port id="0">
					<dim>1</dim>
					<dim>128</dim>
				</port>
				<port id="1">
					<dim>4</dim>
				</port>
			</input>
			<output>
				<port id="2" precision="FP32" names="163,165">
					<dim>1</dim>
					<dim>128</dim>
					<dim>1</dim>
					<dim>1</dim>
				</port>
			</output>
		</layer>
		<layer id="119" name="Mul_33" type="Multiply" version="opset1">
			<data auto_broadcast="numpy"/>
			<input>
				<port id="0">
					<dim>1</dim>
					<dim>128</dim>
					<dim>48</dim>
					<dim>1000</dim>
				</port>
				<port id="1">
					<dim>1</dim>
					<dim>128</dim>
					<dim>1</dim>
					<dim>1</dim>
				</port>
			</input>
			<output>
				<port id="2" precision="FP32" names="166">
					<dim>1</dim>
					<dim>128</dim>
					<dim>48</dim>
					<dim>1000</dim>
				</port>
			</output>
		</layer>
		<layer id="120" name="Add_36/fq_input_0" type="FakeQuantize" version="opset1">
			<data levels="256" auto_broadcast="numpy"/>
			<input>
				<port id="0">
					<dim>1</dim>
					<dim>128</dim>
					<dim>48</dim>
					<dim>1000</dim>
				</port>
				<port id="1"/>
				<port id="2"/>
				<port id="3"/>
				<port id="4"/>
			</input>
			<output>
				<port id="5" precision="FP32">
					<dim>1</dim>
					<dim>128</dim>
					<dim>48</dim>
					<dim>1000</dim>
				</port>
			</output>
		</layer>
		<layer id="121" name="133313376459" type="Const" version="opset1">
			<data offset="265706" size="4" shape="" element_type="f32"/>
			<output>
				<port id="0" precision="FP32"/>
			</output>
		</layer>
		<layer id="122" name="133413386453" type="Const" version="opset1">
			<data offset="265710" size="4" shape="" element_type="f32"/>
			<output>
				<port id="0" precision="FP32"/>
			</output>
		</layer>
		<layer id="123" name="133513396462" type="Const" version="opset1">
			<data offset="265706" size="4" shape="" element_type="f32"/>
			<output>
				<port id="0" precision="FP32"/>
			</output>
		</layer>
		<layer id="124" name="133613406648" type="Const" version="opset1">
			<data offset="265710" size="4" shape="" element_type="f32"/>
			<output>
				<port id="0" precision="FP32"/>
			</output>
		</layer>
		<layer id="125" name="Multiply_7801/fq_weights_1/scale42276300" type="Const" version="opset1">
			<data offset="265714" size="512" shape="128,1,1,1" element_type="f32"/>
			<output>
				<port id="0" precision="FP32">
					<dim>128</dim>
					<dim>1</dim>
					<dim>1</dim>
					<dim>1</dim>
				</port>
			</output>
		</layer>
		<layer id="126" name="Multiply_79712913418/restored_convert/quantized42196330" type="Const" version="opset1">
			<data offset="266226" size="8192" shape="128,64,1,1" element_type="i8"/>
			<output>
				<port id="0" precision="I8">
					<dim>128</dim>
					<dim>64</dim>
					<dim>1</dim>
					<dim>1</dim>
				</port>
			</output>
		</layer>
		<layer id="127" name="Multiply_79712913418/restored_convert/quantized/to_f32" type="Convert" version="opset1">
			<data destination_type="f32"/>
			<input>
				<port id="0">
					<dim>128</dim>
					<dim>64</dim>
					<dim>1</dim>
					<dim>1</dim>
				</port>
			</input>
			<output>
				<port id="1" precision="FP32">
					<dim>128</dim>
					<dim>64</dim>
					<dim>1</dim>
					<dim>1</dim>
				</port>
			</output>
		</layer>
		<layer id="128" name="Multiply_7801/fq_weights_1/mulpiply_by_scale" type="Multiply" version="opset1">
			<data auto_broadcast="numpy"/>
			<input>
				<port id="0">
					<dim>128</dim>
					<dim>64</dim>
					<dim>1</dim>
					<dim>1</dim>
				</port>
				<port id="1">
					<dim>128</dim>
					<dim>1</dim>
					<dim>1</dim>
					<dim>1</dim>
				</port>
			</input>
			<output>
				<port id="2" precision="FP32">
					<dim>128</dim>
					<dim>64</dim>
					<dim>1</dim>
					<dim>1</dim>
				</port>
			</output>
		</layer>
		<layer id="129" name="Multiply_7801" type="Convolution" version="opset1">
			<data auto_pad="explicit" strides="1,1" dilations="1,1" pads_begin="0,0" pads_end="0,0"/>
			<input>
				<port id="0">
					<dim>1</dim>
					<dim>64</dim>
					<dim>48</dim>
					<dim>1000</dim>
				</port>
				<port id="1">
					<dim>128</dim>
					<dim>64</dim>
					<dim>1</dim>
					<dim>1</dim>
				</port>
			</input>
			<output>
				<port id="2" precision="FP32">
					<dim>1</dim>
					<dim>128</dim>
					<dim>48</dim>
					<dim>1000</dim>
				</port>
			</output>
		</layer>
		<layer id="130" name="Constant_78062946369" type="Const" version="opset1">
			<data offset="274418" size="256" shape="1,128,1,1" element_type="f16"/>
			<output>
				<port id="0" precision="FP16">
					<dim>1</dim>
					<dim>128</dim>
					<dim>1</dim>
					<dim>1</dim>
				</port>
			</output>
		</layer>
		<layer id="131" name="Constant_78062943419/restored_convert" type="Convert" version="opset1">
			<data destination_type="f32"/>
			<rt_info>
				<attribute name="decompression" version="0"/>
			</rt_info>
			<input>
				<port id="0">
					<dim>1</dim>
					<dim>128</dim>
					<dim>1</dim>
					<dim>1</dim>
				</port>
			</input>
			<output>
				<port id="1" precision="FP32">
					<dim>1</dim>
					<dim>128</dim>
					<dim>1</dim>
					<dim>1</dim>
				</port>
			</output>
		</layer>
		<layer id="132" name="BatchNormalization_35" type="Add" version="opset1">
			<data auto_broadcast="numpy"/>
			<input>
				<port id="0">
					<dim>1</dim>
					<dim>128</dim>
					<dim>48</dim>
					<dim>1000</dim>
				</port>
				<port id="1">
					<dim>1</dim>
					<dim>128</dim>
					<dim>1</dim>
					<dim>1</dim>
				</port>
			</input>
			<output>
				<port id="2" precision="FP32" names="168">
					<dim>1</dim>
					<dim>128</dim>
					<dim>48</dim>
					<dim>1000</dim>
				</port>
			</output>
		</layer>
		<layer id="133" name="Add_36/fq_input_1" type="FakeQuantize" version="opset1">
			<data levels="256" auto_broadcast="numpy"/>
			<input>
				<port id="0">
					<dim>1</dim>
					<dim>128</dim>
					<dim>48</dim>
					<dim>1000</dim>
				</port>
				<port id="1"/>
				<port id="2"/>
				<port id="3"/>
				<port id="4"/>
			</input>
			<output>
				<port id="5" precision="FP32">
					<dim>1</dim>
					<dim>128</dim>
					<dim>48</dim>
					<dim>1000</dim>
				</port>
			</output>
		</layer>
		<layer id="134" name="Add_36" type="Add" version="opset1">
			<data auto_broadcast="numpy"/>
			<input>
				<port id="0">
					<dim>1</dim>
					<dim>128</dim>
					<dim>48</dim>
					<dim>1000</dim>
				</port>
				<port id="1">
					<dim>1</dim>
					<dim>128</dim>
					<dim>48</dim>
					<dim>1000</dim>
				</port>
			</input>
			<output>
				<port id="2" precision="FP32" names="169">
					<dim>1</dim>
					<dim>128</dim>
					<dim>48</dim>
					<dim>1000</dim>
				</port>
			</output>
		</layer>
		<layer id="135" name="Relu_37" type="ReLU" version="opset1">
			<input>
				<port id="0">
					<dim>1</dim>
					<dim>128</dim>
					<dim>48</dim>
					<dim>1000</dim>
				</port>
			</input>
			<output>
				<port id="1" precision="FP32" names="170">
					<dim>1</dim>
					<dim>128</dim>
					<dim>48</dim>
					<dim>1000</dim>
				</port>
			</output>
		</layer>
		<layer id="136" name="Multiply_7811/fq_input_0" type="FakeQuantize" version="opset1">
			<data levels="256" auto_broadcast="numpy"/>
			<input>
				<port id="0">
					<dim>1</dim>
					<dim>128</dim>
					<dim>48</dim>
					<dim>1000</dim>
				</port>
				<port id="1"/>
				<port id="2"/>
				<port id="3"/>
				<port id="4"/>
			</input>
			<output>
				<port id="5" precision="FP32">
					<dim>1</dim>
					<dim>128</dim>
					<dim>48</dim>
					<dim>1000</dim>
				</port>
			</output>
		</layer>
		<layer id="137" name="Multiply_7811/fq_weights_1/scale43476525" type="Const" version="opset1">
			<data offset="274674" size="512" shape="128,1,1,1" element_type="f32"/>
			<output>
				<port id="0" precision="FP32">
					<dim>128</dim>
					<dim>1</dim>
					<dim>1</dim>
					<dim>1</dim>
				</port>
			</output>
		</layer>
		<layer id="138" name="Multiply_79802993420/restored_convert/quantized43396345" type="Const" version="opset1">
			<data offset="275186" size="147456" shape="128,128,3,3" element_type="i8"/>
			<output>
				<port id="0" precision="I8">
					<dim>128</dim>
					<dim>128</dim>
					<dim>3</dim>
					<dim>3</dim>
				</port>
			</output>
		</layer>
		<layer id="139" name="Multiply_79802993420/restored_convert/quantized/to_f32" type="Convert" version="opset1">
			<data destination_type="f32"/>
			<input>
				<port id="0">
					<dim>128</dim>
					<dim>128</dim>
					<dim>3</dim>
					<dim>3</dim>
				</port>
			</input>
			<output>
				<port id="1" precision="FP32">
					<dim>128</dim>
					<dim>128</dim>
					<dim>3</dim>
					<dim>3</dim>
				</port>
			</output>
		</layer>
		<layer id="140" name="Multiply_7811/fq_weights_1/mulpiply_by_scale" type="Multiply" version="opset1">
			<data auto_broadcast="numpy"/>
			<input>
				<port id="0">
					<dim>128</dim>
					<dim>128</dim>
					<dim>3</dim>
					<dim>3</dim>
				</port>
				<port id="1">
					<dim>128</dim>
					<dim>1</dim>
					<dim>1</dim>
					<dim>1</dim>
				</port>
			</input>
			<output>
				<port id="2" precision="FP32">
					<dim>128</dim>
					<dim>128</dim>
					<dim>3</dim>
					<dim>3</dim>
				</port>
			</output>
		</layer>
		<layer id="141" name="Multiply_7811" type="Convolution" version="opset1">
			<data auto_pad="explicit" strides="1,1" dilations="1,1" pads_begin="1,1" pads_end="1,1"/>
			<input>
				<port id="0">
					<dim>1</dim>
					<dim>128</dim>
					<dim>48</dim>
					<dim>1000</dim>
				</port>
				<port id="1">
					<dim>128</dim>
					<dim>128</dim>
					<dim>3</dim>
					<dim>3</dim>
				</port>
			</input>
			<output>
				<port id="2" precision="FP32">
					<dim>1</dim>
					<dim>128</dim>
					<dim>48</dim>
					<dim>1000</dim>
				</port>
			</output>
		</layer>
		<layer id="142" name="Constant_78163026393" type="Const" version="opset1">
			<data offset="422642" size="256" shape="1,128,1,1" element_type="f16"/>
			<output>
				<port id="0" precision="FP16">
					<dim>1</dim>
					<dim>128</dim>
					<dim>1</dim>
					<dim>1</dim>
				</port>
			</output>
		</layer>
		<layer id="143" name="Constant_78163023421/restored_convert" type="Convert" version="opset1">
			<data destination_type="f32"/>
			<rt_info>
				<attribute name="decompression" version="0"/>
			</rt_info>
			<input>
				<port id="0">
					<dim>1</dim>
					<dim>128</dim>
					<dim>1</dim>
					<dim>1</dim>
				</port>
			</input>
			<output>
				<port id="1" precision="FP32">
					<dim>1</dim>
					<dim>128</dim>
					<dim>1</dim>
					<dim>1</dim>
				</port>
			</output>
		</layer>
		<layer id="144" name="BatchNormalization_39" type="Add" version="opset1">
			<data auto_broadcast="numpy"/>
			<input>
				<port id="0">
					<dim>1</dim>
					<dim>128</dim>
					<dim>48</dim>
					<dim>1000</dim>
				</port>
				<port id="1">
					<dim>1</dim>
					<dim>128</dim>
					<dim>1</dim>
					<dim>1</dim>
				</port>
			</input>
			<output>
				<port id="2" precision="FP32" names="172">
					<dim>1</dim>
					<dim>128</dim>
					<dim>48</dim>
					<dim>1000</dim>
				</port>
			</output>
		</layer>
		<layer id="145" name="Relu_40" type="ReLU" version="opset1">
			<input>
				<port id="0">
					<dim>1</dim>
					<dim>128</dim>
					<dim>48</dim>
					<dim>1000</dim>
				</port>
			</input>
			<output>
				<port id="1" precision="FP32" names="173">
					<dim>1</dim>
					<dim>128</dim>
					<dim>48</dim>
					<dim>1000</dim>
				</port>
			</output>
		</layer>
		<layer id="146" name="MaxPool_41/fq_input_0" type="FakeQuantize" version="opset1">
			<data levels="256" auto_broadcast="numpy"/>
			<input>
				<port id="0">
					<dim>1</dim>
					<dim>128</dim>
					<dim>48</dim>
					<dim>1000</dim>
				</port>
				<port id="1"/>
				<port id="2"/>
				<port id="3"/>
				<port id="4"/>
			</input>
			<output>
				<port id="5" precision="FP32">
					<dim>1</dim>
					<dim>128</dim>
					<dim>48</dim>
					<dim>1000</dim>
				</port>
			</output>
		</layer>
		<layer id="147" name="MaxPool_41" type="MaxPool" version="opset8">
			<data strides="2,2" kernel="2,2" pads_begin="0,0" pads_end="0,0" rounding_type="floor" auto_pad="explicit" dilations="1,1" axis="0" index_element_type="i64"/>
			<input>
				<port id="0">
					<dim>1</dim>
					<dim>128</dim>
					<dim>48</dim>
					<dim>1000</dim>
				</port>
			</input>
			<output>
				<port id="1" precision="FP32" names="174">
					<dim>1</dim>
					<dim>128</dim>
					<dim>24</dim>
					<dim>500</dim>
				</port>
				<port id="2" precision="FP32">
					<dim>1</dim>
					<dim>128</dim>
					<dim>24</dim>
					<dim>500</dim>
					<rt_info/>
				</port>
			</output>
		</layer>
		<layer id="149" name="202720316585" type="Const" version="opset1">
			<data offset="0" size="4" shape="" element_type="f32"/>
			<output>
				<port id="0" precision="FP32"/>
			</output>
		</layer>
		<layer id="150" name="202820326690" type="Const" version="opset1">
			<data offset="422898" size="4" shape="" element_type="f32"/>
			<output>
				<port id="0" precision="FP32"/>
			</output>
		</layer>
		<layer id="151" name="202920336297" type="Const" version="opset1">
			<data offset="0" size="4" shape="" element_type="f32"/>
			<output>
				<port id="0" precision="FP32"/>
			</output>
		</layer>
		<layer id="152" name="203020346678" type="Const" version="opset1">
			<data offset="422898" size="4" shape="" element_type="f32"/>
			<output>
				<port id="0" precision="FP32"/>
			</output>
		</layer>
		<layer id="153" name="140314076627" type="Const" version="opset1">
			<data offset="0" size="4" shape="" element_type="f32"/>
			<output>
				<port id="0" precision="FP32"/>
			</output>
		</layer>
		<layer id="154" name="140414086111" type="Const" version="opset1">
			<data offset="422902" size="4" shape="" element_type="f32"/>
			<output>
				<port id="0" precision="FP32"/>
			</output>
		</layer>
		<layer id="155" name="140514096273" type="Const" version="opset1">
			<data offset="0" size="4" shape="" element_type="f32"/>
			<output>
				<port id="0" precision="FP32"/>
			</output>
		</layer>
		<layer id="156" name="140614106357" type="Const" version="opset1">
			<data offset="422902" size="4" shape="" element_type="f32"/>
			<output>
				<port id="0" precision="FP32"/>
			</output>
		</layer>
		<layer id="157" name="124312476534" type="Const" version="opset1">
			<data offset="422906" size="4" shape="" element_type="f32"/>
			<output>
				<port id="0" precision="FP32"/>
			</output>
		</layer>
		<layer id="158" name="124412486597" type="Const" version="opset1">
			<data offset="422910" size="4" shape="" element_type="f32"/>
			<output>
				<port id="0" precision="FP32"/>
			</output>
		</layer>
		<layer id="159" name="124512496489" type="Const" version="opset1">
			<data offset="422906" size="4" shape="" element_type="f32"/>
			<output>
				<port id="0" precision="FP32"/>
			</output>
		</layer>
		<layer id="160" name="124612506354" type="Const" version="opset1">
			<data offset="422910" size="4" shape="" element_type="f32"/>
			<output>
				<port id="0" precision="FP32"/>
			</output>
		</layer>
		<layer id="161" name="197719816420" type="Const" version="opset1">
			<data offset="0" size="4" shape="" element_type="f32"/>
			<output>
				<port id="0" precision="FP32"/>
			</output>
		</layer>
		<layer id="162" name="197819826318" type="Const" version="opset1">
			<data offset="422914" size="4" shape="" element_type="f32"/>
			<output>
				<port id="0" precision="FP32"/>
			</output>
		</layer>
		<layer id="163" name="197919836615" type="Const" version="opset1">
			<data offset="0" size="4" shape="" element_type="f32"/>
			<output>
				<port id="0" precision="FP32"/>
			</output>
		</layer>
		<layer id="164" name="198019846633" type="Const" version="opset1">
			<data offset="422914" size="4" shape="" element_type="f32"/>
			<output>
				<port id="0" precision="FP32"/>
			</output>
		</layer>
		<layer id="165" name="105310576186" type="Const" version="opset1">
			<data offset="0" size="4" shape="" element_type="f32"/>
			<output>
				<port id="0" precision="FP32"/>
			</output>
		</layer>
		<layer id="166" name="105410586495" type="Const" version="opset1">
			<data offset="422918" size="4" shape="" element_type="f32"/>
			<output>
				<port id="0" precision="FP32"/>
			</output>
		</layer>
		<layer id="167" name="105510596618" type="Const" version="opset1">
			<data offset="0" size="4" shape="" element_type="f32"/>
			<output>
				<port id="0" precision="FP32"/>
			</output>
		</layer>
		<layer id="168" name="105610606135" type="Const" version="opset1">
			<data offset="422918" size="4" shape="" element_type="f32"/>
			<output>
				<port id="0" precision="FP32"/>
			</output>
		</layer>
		<layer id="169" name="192719316456" type="Const" version="opset1">
			<data offset="422922" size="4" shape="" element_type="f32"/>
			<output>
				<port id="0" precision="FP32"/>
			</output>
		</layer>
		<layer id="170" name="192819326537" type="Const" version="opset1">
			<data offset="422926" size="4" shape="" element_type="f32"/>
			<output>
				<port id="0" precision="FP32"/>
			</output>
		</layer>
		<layer id="171" name="192919336429" type="Const" version="opset1">
			<data offset="422922" size="4" shape="" element_type="f32"/>
			<output>
				<port id="0" precision="FP32"/>
			</output>
		</layer>
		<layer id="172" name="193019346480" type="Const" version="opset1">
			<data offset="422926" size="4" shape="" element_type="f32"/>
			<output>
				<port id="0" precision="FP32"/>
			</output>
		</layer>
		<layer id="173" name="9339375970" type="Const" version="opset1">
			<data offset="422930" size="4" shape="" element_type="f32"/>
			<output>
				<port id="0" precision="FP32"/>
			</output>
		</layer>
		<layer id="174" name="9349386405" type="Const" version="opset1">
			<data offset="422934" size="4" shape="" element_type="f32"/>
			<output>
				<port id="0" precision="FP32"/>
			</output>
		</layer>
		<layer id="175" name="9359395976" type="Const" version="opset1">
			<data offset="422930" size="4" shape="" element_type="f32"/>
			<output>
				<port id="0" precision="FP32"/>
			</output>
		</layer>
		<layer id="176" name="9369406327" type="Const" version="opset1">
			<data offset="422934" size="4" shape="" element_type="f32"/>
			<output>
				<port id="0" precision="FP32"/>
			</output>
		</layer>
		<layer id="177" name="8538576486" type="Const" version="opset1">
			<data offset="0" size="4" shape="" element_type="f32"/>
			<output>
				<port id="0" precision="FP32"/>
			</output>
		</layer>
		<layer id="178" name="8548586630" type="Const" version="opset1">
			<data offset="422938" size="4" shape="" element_type="f32"/>
			<output>
				<port id="0" precision="FP32"/>
			</output>
		</layer>
		<layer id="179" name="8558596276" type="Const" version="opset1">
			<data offset="0" size="4" shape="" element_type="f32"/>
			<output>
				<port id="0" precision="FP32"/>
			</output>
		</layer>
		<layer id="180" name="8568605985" type="Const" version="opset1">
			<data offset="422938" size="4" shape="" element_type="f32"/>
			<output>
				<port id="0" precision="FP32"/>
			</output>
		</layer>
		<layer id="181" name="Multiply_7821/fq_weights_1/scale44076192" type="Const" version="opset1">
			<data offset="422942" size="1024" shape="256,1,1,1" element_type="f32"/>
			<output>
				<port id="0" precision="FP32">
					<dim>256</dim>
					<dim>1</dim>
					<dim>1</dim>
					<dim>1</dim>
				</port>
			</output>
		</layer>
		<layer id="182" name="Multiply_79893073422/restored_convert/quantized43996303" type="Const" version="opset1">
			<data offset="423966" size="294912" shape="256,128,3,3" element_type="i8"/>
			<output>
				<port id="0" precision="I8">
					<dim>256</dim>
					<dim>128</dim>
					<dim>3</dim>
					<dim>3</dim>
				</port>
			</output>
		</layer>
		<layer id="183" name="Multiply_79893073422/restored_convert/quantized/to_f32" type="Convert" version="opset1">
			<data destination_type="f32"/>
			<input>
				<port id="0">
					<dim>256</dim>
					<dim>128</dim>
					<dim>3</dim>
					<dim>3</dim>
				</port>
			</input>
			<output>
				<port id="1" precision="FP32">
					<dim>256</dim>
					<dim>128</dim>
					<dim>3</dim>
					<dim>3</dim>
				</port>
			</output>
		</layer>
		<layer id="184" name="Multiply_7821/fq_weights_1/mulpiply_by_scale" type="Multiply" version="opset1">
			<data auto_broadcast="numpy"/>
			<input>
				<port id="0">
					<dim>256</dim>
					<dim>128</dim>
					<dim>3</dim>
					<dim>3</dim>
				</port>
				<port id="1">
					<dim>256</dim>
					<dim>1</dim>
					<dim>1</dim>
					<dim>1</dim>
				</port>
			</input>
			<output>
				<port id="2" precision="FP32">
					<dim>256</dim>
					<dim>128</dim>
					<dim>3</dim>
					<dim>3</dim>
				</port>
			</output>
		</layer>
		<layer id="185" name="Multiply_7821" type="Convolution" version="opset1">
			<data auto_pad="explicit" strides="1,1" dilations="1,1" pads_begin="1,1" pads_end="1,1"/>
			<input>
				<port id="0">
					<dim>1</dim>
					<dim>128</dim>
					<dim>24</dim>
					<dim>500</dim>
				</port>
				<port id="1">
					<dim>256</dim>
					<dim>128</dim>
					<dim>3</dim>
					<dim>3</dim>
				</port>
			</input>
			<output>
				<port id="2" precision="FP32">
					<dim>1</dim>
					<dim>256</dim>
					<dim>24</dim>
					<dim>500</dim>
				</port>
			</output>
		</layer>
		<layer id="186" name="Constant_78263106039" type="Const" version="opset1">
			<data offset="718878" size="512" shape="1,256,1,1" element_type="f16"/>
			<output>
				<port id="0" precision="FP16">
					<dim>1</dim>
					<dim>256</dim>
					<dim>1</dim>
					<dim>1</dim>
				</port>
			</output>
		</layer>
		<layer id="187" name="Constant_78263103423/restored_convert" type="Convert" version="opset1">
			<data destination_type="f32"/>
			<rt_info>
				<attribute name="decompression" version="0"/>
			</rt_info>
			<input>
				<port id="0">
					<dim>1</dim>
					<dim>256</dim>
					<dim>1</dim>
					<dim>1</dim>
				</port>
			</input>
			<output>
				<port id="1" precision="FP32">
					<dim>1</dim>
					<dim>256</dim>
					<dim>1</dim>
					<dim>1</dim>
				</port>
			</output>
		</layer>
		<layer id="188" name="BatchNormalization_43" type="Add" version="opset1">
			<data auto_broadcast="numpy"/>
			<input>
				<port id="0">
					<dim>1</dim>
					<dim>256</dim>
					<dim>24</dim>
					<dim>500</dim>
				</port>
				<port id="1">
					<dim>1</dim>
					<dim>256</dim>
					<dim>1</dim>
					<dim>1</dim>
				</port>
			</input>
			<output>
				<port id="2" precision="FP32" names="176">
					<dim>1</dim>
					<dim>256</dim>
					<dim>24</dim>
					<dim>500</dim>
				</port>
			</output>
		</layer>
		<layer id="189" name="Relu_44" type="ReLU" version="opset1">
			<input>
				<port id="0">
					<dim>1</dim>
					<dim>256</dim>
					<dim>24</dim>
					<dim>500</dim>
				</port>
			</input>
			<output>
				<port id="1" precision="FP32" names="177">
					<dim>1</dim>
					<dim>256</dim>
					<dim>24</dim>
					<dim>500</dim>
				</port>
			</output>
		</layer>
		<layer id="190" name="Multiply_7831/fq_input_0" type="FakeQuantize" version="opset1">
			<data levels="256" auto_broadcast="numpy"/>
			<input>
				<port id="0">
					<dim>1</dim>
					<dim>256</dim>
					<dim>24</dim>
					<dim>500</dim>
				</port>
				<port id="1"/>
				<port id="2"/>
				<port id="3"/>
				<port id="4"/>
			</input>
			<output>
				<port id="5" precision="FP32">
					<dim>1</dim>
					<dim>256</dim>
					<dim>24</dim>
					<dim>500</dim>
				</port>
			</output>
		</layer>
		<layer id="191" name="Multiply_7831/fq_weights_1/scale45576363" type="Const" version="opset1">
			<data offset="719390" size="1024" shape="256,1,1,1" element_type="f32"/>
			<output>
				<port id="0" precision="FP32">
					<dim>256</dim>
					<dim>1</dim>
					<dim>1</dim>
					<dim>1</dim>
				</port>
			</output>
		</layer>
		<layer id="192" name="Multiply_79983143424/restored_convert/quantized45496675" type="Const" version="opset1">
			<data offset="720414" size="589824" shape="256,256,3,3" element_type="i8"/>
			<output>
				<port id="0" precision="I8">
					<dim>256</dim>
					<dim>256</dim>
					<dim>3</dim>
					<dim>3</dim>
				</port>
			</output>
		</layer>
		<layer id="193" name="Multiply_79983143424/restored_convert/quantized/to_f32" type="Convert" version="opset1">
			<data destination_type="f32"/>
			<input>
				<port id="0">
					<dim>256</dim>
					<dim>256</dim>
					<dim>3</dim>
					<dim>3</dim>
				</port>
			</input>
			<output>
				<port id="1" precision="FP32">
					<dim>256</dim>
					<dim>256</dim>
					<dim>3</dim>
					<dim>3</dim>
				</port>
			</output>
		</layer>
		<layer id="194" name="Multiply_7831/fq_weights_1/mulpiply_by_scale" type="Multiply" version="opset1">
			<data auto_broadcast="numpy"/>
			<input>
				<port id="0">
					<dim>256</dim>
					<dim>256</dim>
					<dim>3</dim>
					<dim>3</dim>
				</port>
				<port id="1">
					<dim>256</dim>
					<dim>1</dim>
					<dim>1</dim>
					<dim>1</dim>
				</port>
			</input>
			<output>
				<port id="2" precision="FP32">
					<dim>256</dim>
					<dim>256</dim>
					<dim>3</dim>
					<dim>3</dim>
				</port>
			</output>
		</layer>
		<layer id="195" name="Multiply_7831" type="Convolution" version="opset1">
			<data auto_pad="explicit" strides="1,1" dilations="1,1" pads_begin="1,1" pads_end="1,1"/>
			<input>
				<port id="0">
					<dim>1</dim>
					<dim>256</dim>
					<dim>24</dim>
					<dim>500</dim>
				</port>
				<port id="1">
					<dim>256</dim>
					<dim>256</dim>
					<dim>3</dim>
					<dim>3</dim>
				</port>
			</input>
			<output>
				<port id="2" precision="FP32">
					<dim>1</dim>
					<dim>256</dim>
					<dim>24</dim>
					<dim>500</dim>
				</port>
			</output>
		</layer>
		<layer id="196" name="Constant_78363176066" type="Const" version="opset1">
			<data offset="1310238" size="512" shape="1,256,1,1" element_type="f16"/>
			<output>
				<port id="0" precision="FP16">
					<dim>1</dim>
					<dim>256</dim>
					<dim>1</dim>
					<dim>1</dim>
				</port>
			</output>
		</layer>
		<layer id="197" name="Constant_78363173425/restored_convert" type="Convert" version="opset1">
			<data destination_type="f32"/>
			<rt_info>
				<attribute name="decompression" version="0"/>
			</rt_info>
			<input>
				<port id="0">
					<dim>1</dim>
					<dim>256</dim>
					<dim>1</dim>
					<dim>1</dim>
				</port>
			</input>
			<output>
				<port id="1" precision="FP32">
					<dim>1</dim>
					<dim>256</dim>
					<dim>1</dim>
					<dim>1</dim>
				</port>
			</output>
		</layer>
		<layer id="198" name="BatchNormalization_46" type="Add" version="opset1">
			<data auto_broadcast="numpy"/>
			<input>
				<port id="0">
					<dim>1</dim>
					<dim>256</dim>
					<dim>24</dim>
					<dim>500</dim>
				</port>
				<port id="1">
					<dim>1</dim>
					<dim>256</dim>
					<dim>1</dim>
					<dim>1</dim>
				</port>
			</input>
			<output>
				<port id="2" precision="FP32" names="179">
					<dim>1</dim>
					<dim>256</dim>
					<dim>24</dim>
					<dim>500</dim>
				</port>
			</output>
		</layer>
		<layer id="199" name="GlobalAveragePool_53/fq_input_0" type="FakeQuantize" version="opset1">
			<data levels="256" auto_broadcast="numpy"/>
			<input>
				<port id="0">
					<dim>1</dim>
					<dim>256</dim>
					<dim>24</dim>
					<dim>500</dim>
				</port>
				<port id="1"/>
				<port id="2"/>
				<port id="3"/>
				<port id="4"/>
			</input>
			<output>
				<port id="5" precision="FP32">
					<dim>1</dim>
					<dim>256</dim>
					<dim>24</dim>
					<dim>500</dim>
				</port>
			</output>
		</layer>
		<layer id="200" name="Range_640319" type="Const" version="opset1">
			<data offset="260994" size="16" shape="2" element_type="i64"/>
			<output>
				<port id="0" precision="I64">
					<dim>2</dim>
				</port>
			</output>
		</layer>
		<layer id="201" name="GlobalAveragePool_53" type="ReduceMean" version="opset1">
			<data keep_dims="true"/>
			<input>
				<port id="0">
					<dim>1</dim>
					<dim>256</dim>
					<dim>24</dim>
					<dim>500</dim>
				</port>
				<port id="1">
					<dim>2</dim>
				</port>
			</input>
			<output>
				<port id="2" precision="FP32" names="186">
					<dim>1</dim>
					<dim>256</dim>
					<dim>1</dim>
					<dim>1</dim>
				</port>
			</output>
		</layer>
		<layer id="202" name="Reshape_57/fq_input_0" type="FakeQuantize" version="opset1">
			<data levels="256" auto_broadcast="numpy"/>
			<input>
				<port id="0">
					<dim>1</dim>
					<dim>256</dim>
					<dim>1</dim>
					<dim>1</dim>
				</port>
				<port id="1"/>
				<port id="2"/>
				<port id="3"/>
				<port id="4"/>
			</input>
			<output>
				<port id="5" precision="FP32">
					<dim>1</dim>
					<dim>256</dim>
					<dim>1</dim>
					<dim>1</dim>
				</port>
			</output>
		</layer>
		<layer id="203" name="Shape_47" type="ShapeOf" version="opset3">
			<data output_type="i64"/>
			<input>
				<port id="0">
					<dim>1</dim>
					<dim>256</dim>
					<dim>24</dim>
					<dim>500</dim>
				</port>
			</input>
			<output>
				<port id="1" precision="I64" names="180,183,205">
					<dim>4</dim>
				</port>
			</output>
		</layer>
		<layer id="204" name="Constant_5111322" type="Const" version="opset1">
			<data offset="261010" size="8" shape="2" element_type="i32"/>
			<output>
				<port id="0" precision="I32">
					<dim>2</dim>
				</port>
			</output>
		</layer>
		<layer id="205" name="Constant_5112323" type="Const" version="opset1">
			<data offset="261018" size="8" shape="" element_type="i64"/>
			<output>
				<port id="0" precision="I64"/>
			</output>
		</layer>
		<layer id="206" name="Gather_5113" type="Gather" version="opset8">
			<data batch_dims="0"/>
			<input>
				<port id="0">
					<dim>4</dim>
				</port>
				<port id="1">
					<dim>2</dim>
				</port>
				<port id="2"/>
			</input>
			<output>
				<port id="3" precision="I64" names="189">
					<dim>2</dim>
				</port>
			</output>
		</layer>
		<layer id="207" name="Reshape_57" type="Reshape" version="opset1">
			<data special_zero="true"/>
			<input>
				<port id="0">
					<dim>1</dim>
					<dim>256</dim>
					<dim>1</dim>
					<dim>1</dim>
				</port>
				<port id="1">
					<dim>2</dim>
				</port>
			</input>
			<output>
				<port id="2" precision="FP32" names="190">
					<dim>1</dim>
					<dim>256</dim>
				</port>
			</output>
		</layer>
		<layer id="208" name="MatMul_58/fq_weights_1/scale43775973" type="Const" version="opset1">
			<data offset="1310750" size="128" shape="32,1" element_type="f32"/>
			<output>
				<port id="0" precision="FP32">
					<dim>32</dim>
					<dim>1</dim>
				</port>
			</output>
		</layer>
		<layer id="209" name="Constant_55553273429/restored_convert/quantized43695982" type="Const" version="opset1">
			<data offset="1310878" size="8192" shape="32,256" element_type="i8"/>
			<output>
				<port id="0" precision="I8">
					<dim>32</dim>
					<dim>256</dim>
				</port>
			</output>
		</layer>
		<layer id="210" name="Constant_55553273429/restored_convert/quantized/to_f32" type="Convert" version="opset1">
			<data destination_type="f32"/>
			<input>
				<port id="0">
					<dim>32</dim>
					<dim>256</dim>
				</port>
			</input>
			<output>
				<port id="1" precision="FP32">
					<dim>32</dim>
					<dim>256</dim>
				</port>
			</output>
		</layer>
		<layer id="211" name="MatMul_58/fq_weights_1/mulpiply_by_scale" type="Multiply" version="opset1">
			<data auto_broadcast="numpy"/>
			<input>
				<port id="0">
					<dim>32</dim>
					<dim>256</dim>
				</port>
				<port id="1">
					<dim>32</dim>
					<dim>1</dim>
				</port>
			</input>
			<output>
				<port id="2" precision="FP32">
					<dim>32</dim>
					<dim>256</dim>
				</port>
			</output>
		</layer>
		<layer id="212" name="MatMul_58" type="MatMul" version="opset1">
			<data transpose_a="false" transpose_b="true"/>
			<input>
				<port id="0">
					<dim>1</dim>
					<dim>256</dim>
				</port>
				<port id="1">
					<dim>32</dim>
					<dim>256</dim>
				</port>
			</input>
			<output>
				<port id="2" precision="FP32" names="192">
					<dim>1</dim>
					<dim>32</dim>
				</port>
			</output>
		</layer>
		<layer id="213" name="Relu_59" type="ReLU" version="opset1">
			<input>
				<port id="0">
					<dim>1</dim>
					<dim>32</dim>
				</port>
			</input>
			<output>
				<port id="1" precision="FP32" names="193">
					<dim>1</dim>
					<dim>32</dim>
				</port>
			</output>
		</layer>
		<layer id="214" name="MatMul_60/fq_input_0" type="FakeQuantize" version="opset1">
			<data levels="256" auto_broadcast="numpy"/>
			<input>
				<port id="0">
					<dim>1</dim>
					<dim>32</dim>
				</port>
				<port id="1"/>
				<port id="2"/>
				<port id="3"/>
				<port id="4"/>
			</input>
			<output>
				<port id="5" precision="FP32">
					<dim>1</dim>
					<dim>32</dim>
				</port>
			</output>
		</layer>
		<layer id="215" name="MatMul_60/fq_weights_1/scale41075943" type="Const" version="opset1">
			<data offset="1319070" size="1024" shape="256,1" element_type="f32"/>
			<output>
				<port id="0" precision="FP32">
					<dim>256</dim>
					<dim>1</dim>
				</port>
			</output>
		</layer>
		<layer id="216" name="Constant_55623313430/restored_convert/quantized40996693" type="Const" version="opset1">
			<data offset="1320094" size="8192" shape="256,32" element_type="i8"/>
			<output>
				<port id="0" precision="I8">
					<dim>256</dim>
					<dim>32</dim>
				</port>
			</output>
		</layer>
		<layer id="217" name="Constant_55623313430/restored_convert/quantized/to_f32" type="Convert" version="opset1">
			<data destination_type="f32"/>
			<input>
				<port id="0">
					<dim>256</dim>
					<dim>32</dim>
				</port>
			</input>
			<output>
				<port id="1" precision="FP32">
					<dim>256</dim>
					<dim>32</dim>
				</port>
			</output>
		</layer>
		<layer id="218" name="MatMul_60/fq_weights_1/mulpiply_by_scale" type="Multiply" version="opset1">
			<data auto_broadcast="numpy"/>
			<input>
				<port id="0">
					<dim>256</dim>
					<dim>32</dim>
				</port>
				<port id="1">
					<dim>256</dim>
					<dim>1</dim>
				</port>
			</input>
			<output>
				<port id="2" precision="FP32">
					<dim>256</dim>
					<dim>32</dim>
				</port>
			</output>
		</layer>
		<layer id="219" name="MatMul_60" type="MatMul" version="opset1">
			<data transpose_a="false" transpose_b="true"/>
			<input>
				<port id="0">
					<dim>1</dim>
					<dim>32</dim>
				</port>
				<port id="1">
					<dim>256</dim>
					<dim>32</dim>
				</port>
			</input>
			<output>
				<port id="2" precision="FP32" names="195">
					<dim>1</dim>
					<dim>256</dim>
				</port>
			</output>
		</layer>
		<layer id="220" name="Sigmoid_61" type="Sigmoid" version="opset1">
			<input>
				<port id="0">
					<dim>1</dim>
					<dim>256</dim>
				</port>
			</input>
			<output>
				<port id="1" precision="FP32" names="196">
					<dim>1</dim>
					<dim>256</dim>
				</port>
			</output>
		</layer>
		<layer id="221" name="Reshape_65/fq_input_0" type="FakeQuantize" version="opset1">
			<data levels="256" auto_broadcast="numpy"/>
			<input>
				<port id="0">
					<dim>1</dim>
					<dim>256</dim>
				</port>
				<port id="1"/>
				<port id="2"/>
				<port id="3"/>
				<port id="4"/>
			</input>
			<output>
				<port id="5" precision="FP32">
					<dim>1</dim>
					<dim>256</dim>
				</port>
			</output>
		</layer>
		<layer id="222" name="Constant_5115334" type="Const" version="opset1">
			<data offset="261010" size="8" shape="2" element_type="i32"/>
			<output>
				<port id="0" precision="I32">
					<dim>2</dim>
				</port>
			</output>
		</layer>
		<layer id="223" name="Constant_5116335" type="Const" version="opset1">
			<data offset="261018" size="8" shape="" element_type="i64"/>
			<output>
				<port id="0" precision="I64"/>
			</output>
		</layer>
		<layer id="224" name="Gather_5117" type="Gather" version="opset8">
			<data batch_dims="0"/>
			<input>
				<port id="0">
					<dim>4</dim>
				</port>
				<port id="1">
					<dim>2</dim>
				</port>
				<port id="2"/>
			</input>
			<output>
				<port id="3" precision="I64">
					<dim>2</dim>
				</port>
			</output>
		</layer>
		<layer id="225" name="3093376033" type="Const" version="opset1">
			<data offset="265698" size="8" shape="1" element_type="i64"/>
			<output>
				<port id="0" precision="I64" names="309">
					<dim>1</dim>
				</port>
			</output>
		</layer>
		<layer id="226" name="3103386021" type="Const" version="opset1">
			<data offset="265698" size="8" shape="1" element_type="i64"/>
			<output>
				<port id="0" precision="I64" names="310">
					<dim>1</dim>
				</port>
			</output>
		</layer>
		<layer id="227" name="Concat_64" type="Concat" version="opset1">
			<data axis="0"/>
			<input>
				<port id="0">
					<dim>2</dim>
				</port>
				<port id="1">
					<dim>1</dim>
				</port>
				<port id="2">
					<dim>1</dim>
				</port>
			</input>
			<output>
				<port id="3" precision="I64" names="203">
					<dim>4</dim>
				</port>
			</output>
		</layer>
		<layer id="228" name="Reshape_65" type="Reshape" version="opset1">
			<data special_zero="true"/>
			<input>
				<port id="0">
					<dim>1</dim>
					<dim>256</dim>
				</port>
				<port id="1">
					<dim>4</dim>
				</port>
			</input>
			<output>
				<port id="2" precision="FP32" names="204,206">
					<dim>1</dim>
					<dim>256</dim>
					<dim>1</dim>
					<dim>1</dim>
				</port>
			</output>
		</layer>
		<layer id="229" name="Mul_68" type="Multiply" version="opset1">
			<data auto_broadcast="numpy"/>
			<input>
				<port id="0">
					<dim>1</dim>
					<dim>256</dim>
					<dim>24</dim>
					<dim>500</dim>
				</port>
				<port id="1">
					<dim>1</dim>
					<dim>256</dim>
					<dim>1</dim>
					<dim>1</dim>
				</port>
			</input>
			<output>
				<port id="2" precision="FP32" names="207">
					<dim>1</dim>
					<dim>256</dim>
					<dim>24</dim>
					<dim>500</dim>
				</port>
			</output>
		</layer>
		<layer id="230" name="Add_71/fq_input_0" type="FakeQuantize" version="opset1">
			<data levels="256" auto_broadcast="numpy"/>
			<input>
				<port id="0">
					<dim>1</dim>
					<dim>256</dim>
					<dim>24</dim>
					<dim>500</dim>
				</port>
				<port id="1"/>
				<port id="2"/>
				<port id="3"/>
				<port id="4"/>
			</input>
			<output>
				<port id="5" precision="FP32">
					<dim>1</dim>
					<dim>256</dim>
					<dim>24</dim>
					<dim>500</dim>
				</port>
			</output>
		</layer>
		<layer id="231" name="125312576696" type="Const" version="opset1">
			<data offset="1328286" size="4" shape="" element_type="f32"/>
			<output>
				<port id="0" precision="FP32"/>
			</output>
		</layer>
		<layer id="232" name="125412586570" type="Const" version="opset1">
			<data offset="1328290" size="4" shape="" element_type="f32"/>
			<output>
				<port id="0" precision="FP32"/>
			</output>
		</layer>
		<layer id="233" name="125512596477" type="Const" version="opset1">
			<data offset="1328286" size="4" shape="" element_type="f32"/>
			<output>
				<port id="0" precision="FP32"/>
			</output>
		</layer>
		<layer id="234" name="125612606231" type="Const" version="opset1">
			<data offset="1328290" size="4" shape="" element_type="f32"/>
			<output>
				<port id="0" precision="FP32"/>
			</output>
		</layer>
		<layer id="235" name="Multiply_7838/fq_weights_1/scale41976561" type="Const" version="opset1">
			<data offset="1328294" size="1024" shape="256,1,1,1" element_type="f32"/>
			<output>
				<port id="0" precision="FP32">
					<dim>256</dim>
					<dim>1</dim>
					<dim>1</dim>
					<dim>1</dim>
				</port>
			</output>
		</layer>
		<layer id="236" name="Multiply_80073433435/restored_convert/quantized41896051" type="Const" version="opset1">
			<data offset="1329318" size="32768" shape="256,128,1,1" element_type="i8"/>
			<output>
				<port id="0" precision="I8">
					<dim>256</dim>
					<dim>128</dim>
					<dim>1</dim>
					<dim>1</dim>
				</port>
			</output>
		</layer>
		<layer id="237" name="Multiply_80073433435/restored_convert/quantized/to_f32" type="Convert" version="opset1">
			<data destination_type="f32"/>
			<input>
				<port id="0">
					<dim>256</dim>
					<dim>128</dim>
					<dim>1</dim>
					<dim>1</dim>
				</port>
			</input>
			<output>
				<port id="1" precision="FP32">
					<dim>256</dim>
					<dim>128</dim>
					<dim>1</dim>
					<dim>1</dim>
				</port>
			</output>
		</layer>
		<layer id="238" name="Multiply_7838/fq_weights_1/mulpiply_by_scale" type="Multiply" version="opset1">
			<data auto_broadcast="numpy"/>
			<input>
				<port id="0">
					<dim>256</dim>
					<dim>128</dim>
					<dim>1</dim>
					<dim>1</dim>
				</port>
				<port id="1">
					<dim>256</dim>
					<dim>1</dim>
					<dim>1</dim>
					<dim>1</dim>
				</port>
			</input>
			<output>
				<port id="2" precision="FP32">
					<dim>256</dim>
					<dim>128</dim>
					<dim>1</dim>
					<dim>1</dim>
				</port>
			</output>
		</layer>
		<layer id="239" name="Multiply_7838" type="Convolution" version="opset1">
			<data auto_pad="explicit" strides="1,1" dilations="1,1" pads_begin="0,0" pads_end="0,0"/>
			<input>
				<port id="0">
					<dim>1</dim>
					<dim>128</dim>
					<dim>24</dim>
					<dim>500</dim>
				</port>
				<port id="1">
					<dim>256</dim>
					<dim>128</dim>
					<dim>1</dim>
					<dim>1</dim>
				</port>
			</input>
			<output>
				<port id="2" precision="FP32">
					<dim>1</dim>
					<dim>256</dim>
					<dim>24</dim>
					<dim>500</dim>
				</port>
			</output>
		</layer>
		<layer id="240" name="Constant_78433466660" type="Const" version="opset1">
			<data offset="1362086" size="512" shape="1,256,1,1" element_type="f16"/>
			<output>
				<port id="0" precision="FP16">
					<dim>1</dim>
					<dim>256</dim>
					<dim>1</dim>
					<dim>1</dim>
				</port>
			</output>
		</layer>
		<layer id="241" name="Constant_78433463436/restored_convert" type="Convert" version="opset1">
			<data destination_type="f32"/>
			<rt_info>
				<attribute name="decompression" version="0"/>
			</rt_info>
			<input>
				<port id="0">
					<dim>1</dim>
					<dim>256</dim>
					<dim>1</dim>
					<dim>1</dim>
				</port>
			</input>
			<output>
				<port id="1" precision="FP32">
					<dim>1</dim>
					<dim>256</dim>
					<dim>1</dim>
					<dim>1</dim>
				</port>
			</output>
		</layer>
		<layer id="242" name="BatchNormalization_70" type="Add" version="opset1">
			<data auto_broadcast="numpy"/>
			<input>
				<port id="0">
					<dim>1</dim>
					<dim>256</dim>
					<dim>24</dim>
					<dim>500</dim>
				</port>
				<port id="1">
					<dim>1</dim>
					<dim>256</dim>
					<dim>1</dim>
					<dim>1</dim>
				</port>
			</input>
			<output>
				<port id="2" precision="FP32" names="209">
					<dim>1</dim>
					<dim>256</dim>
					<dim>24</dim>
					<dim>500</dim>
				</port>
			</output>
		</layer>
		<layer id="243" name="Add_71/fq_input_1" type="FakeQuantize" version="opset1">
			<data levels="256" auto_broadcast="numpy"/>
			<input>
				<port id="0">
					<dim>1</dim>
					<dim>256</dim>
					<dim>24</dim>
					<dim>500</dim>
				</port>
				<port id="1"/>
				<port id="2"/>
				<port id="3"/>
				<port id="4"/>
			</input>
			<output>
				<port id="5" precision="FP32">
					<dim>1</dim>
					<dim>256</dim>
					<dim>24</dim>
					<dim>500</dim>
				</port>
			</output>
		</layer>
		<layer id="244" name="Add_71" type="Add" version="opset1">
			<data auto_broadcast="numpy"/>
			<input>
				<port id="0">
					<dim>1</dim>
					<dim>256</dim>
					<dim>24</dim>
					<dim>500</dim>
				</port>
				<port id="1">
					<dim>1</dim>
					<dim>256</dim>
					<dim>24</dim>
					<dim>500</dim>
				</port>
			</input>
			<output>
				<port id="2" precision="FP32" names="210">
					<dim>1</dim>
					<dim>256</dim>
					<dim>24</dim>
					<dim>500</dim>
				</port>
			</output>
		</layer>
		<layer id="245" name="Relu_72" type="ReLU" version="opset1">
			<input>
				<port id="0">
					<dim>1</dim>
					<dim>256</dim>
					<dim>24</dim>
					<dim>500</dim>
				</port>
			</input>
			<output>
				<port id="1" precision="FP32" names="211">
					<dim>1</dim>
					<dim>256</dim>
					<dim>24</dim>
					<dim>500</dim>
				</port>
			</output>
		</layer>
		<layer id="246" name="Multiply_7848/fq_input_0" type="FakeQuantize" version="opset1">
			<data levels="256" auto_broadcast="numpy"/>
			<input>
				<port id="0">
					<dim>1</dim>
					<dim>256</dim>
					<dim>24</dim>
					<dim>500</dim>
				</port>
				<port id="1"/>
				<port id="2"/>
				<port id="3"/>
				<port id="4"/>
			</input>
			<output>
				<port id="5" precision="FP32">
					<dim>1</dim>
					<dim>256</dim>
					<dim>24</dim>
					<dim>500</dim>
				</port>
			</output>
		</layer>
		<layer id="247" name="Multiply_7848/fq_weights_1/scale41376138" type="Const" version="opset1">
			<data offset="1362598" size="1024" shape="256,1,1,1" element_type="f32"/>
			<output>
				<port id="0" precision="FP32">
					<dim>256</dim>
					<dim>1</dim>
					<dim>1</dim>
					<dim>1</dim>
				</port>
			</output>
		</layer>
		<layer id="248" name="Multiply_80163513437/restored_convert/quantized41296090" type="Const" version="opset1">
			<data offset="1363622" size="589824" shape="256,256,3,3" element_type="i8"/>
			<output>
				<port id="0" precision="I8">
					<dim>256</dim>
					<dim>256</dim>
					<dim>3</dim>
					<dim>3</dim>
				</port>
			</output>
		</layer>
		<layer id="249" name="Multiply_80163513437/restored_convert/quantized/to_f32" type="Convert" version="opset1">
			<data destination_type="f32"/>
			<input>
				<port id="0">
					<dim>256</dim>
					<dim>256</dim>
					<dim>3</dim>
					<dim>3</dim>
				</port>
			</input>
			<output>
				<port id="1" precision="FP32">
					<dim>256</dim>
					<dim>256</dim>
					<dim>3</dim>
					<dim>3</dim>
				</port>
			</output>
		</layer>
		<layer id="250" name="Multiply_7848/fq_weights_1/mulpiply_by_scale" type="Multiply" version="opset1">
			<data auto_broadcast="numpy"/>
			<input>
				<port id="0">
					<dim>256</dim>
					<dim>256</dim>
					<dim>3</dim>
					<dim>3</dim>
				</port>
				<port id="1">
					<dim>256</dim>
					<dim>1</dim>
					<dim>1</dim>
					<dim>1</dim>
				</port>
			</input>
			<output>
				<port id="2" precision="FP32">
					<dim>256</dim>
					<dim>256</dim>
					<dim>3</dim>
					<dim>3</dim>
				</port>
			</output>
		</layer>
		<layer id="251" name="Multiply_7848" type="Convolution" version="opset1">
			<data auto_pad="explicit" strides="1,1" dilations="1,1" pads_begin="1,1" pads_end="1,1"/>
			<input>
				<port id="0">
					<dim>1</dim>
					<dim>256</dim>
					<dim>24</dim>
					<dim>500</dim>
				</port>
				<port id="1">
					<dim>256</dim>
					<dim>256</dim>
					<dim>3</dim>
					<dim>3</dim>
				</port>
			</input>
			<output>
				<port id="2" precision="FP32">
					<dim>1</dim>
					<dim>256</dim>
					<dim>24</dim>
					<dim>500</dim>
				</port>
			</output>
		</layer>
		<layer id="252" name="Constant_78533546078" type="Const" version="opset1">
			<data offset="1953446" size="512" shape="1,256,1,1" element_type="f16"/>
			<output>
				<port id="0" precision="FP16">
					<dim>1</dim>
					<dim>256</dim>
					<dim>1</dim>
					<dim>1</dim>
				</port>
			</output>
		</layer>
		<layer id="253" name="Constant_78533543438/restored_convert" type="Convert" version="opset1">
			<data destination_type="f32"/>
			<rt_info>
				<attribute name="decompression" version="0"/>
			</rt_info>
			<input>
				<port id="0">
					<dim>1</dim>
					<dim>256</dim>
					<dim>1</dim>
					<dim>1</dim>
				</port>
			</input>
			<output>
				<port id="1" precision="FP32">
					<dim>1</dim>
					<dim>256</dim>
					<dim>1</dim>
					<dim>1</dim>
				</port>
			</output>
		</layer>
		<layer id="254" name="BatchNormalization_74" type="Add" version="opset1">
			<data auto_broadcast="numpy"/>
			<input>
				<port id="0">
					<dim>1</dim>
					<dim>256</dim>
					<dim>24</dim>
					<dim>500</dim>
				</port>
				<port id="1">
					<dim>1</dim>
					<dim>256</dim>
					<dim>1</dim>
					<dim>1</dim>
				</port>
			</input>
			<output>
				<port id="2" precision="FP32" names="213">
					<dim>1</dim>
					<dim>256</dim>
					<dim>24</dim>
					<dim>500</dim>
				</port>
			</output>
		</layer>
		<layer id="255" name="Relu_75" type="ReLU" version="opset1">
			<input>
				<port id="0">
					<dim>1</dim>
					<dim>256</dim>
					<dim>24</dim>
					<dim>500</dim>
				</port>
			</input>
			<output>
				<port id="1" precision="FP32" names="214">
					<dim>1</dim>
					<dim>256</dim>
					<dim>24</dim>
					<dim>500</dim>
				</port>
			</output>
		</layer>
		<layer id="256" name="MaxPool_76/fq_input_0" type="FakeQuantize" version="opset1">
			<data levels="256" auto_broadcast="numpy"/>
			<input>
				<port id="0">
					<dim>1</dim>
					<dim>256</dim>
					<dim>24</dim>
					<dim>500</dim>
				</port>
				<port id="1"/>
				<port id="2"/>
				<port id="3"/>
				<port id="4"/>
			</input>
			<output>
				<port id="5" precision="FP32">
					<dim>1</dim>
					<dim>256</dim>
					<dim>24</dim>
					<dim>500</dim>
				</port>
			</output>
		</layer>
		<layer id="257" name="MaxPool_76" type="MaxPool" version="opset8">
			<data strides="2,2" kernel="2,2" pads_begin="0,0" pads_end="0,0" rounding_type="floor" auto_pad="explicit" dilations="1,1" axis="0" index_element_type="i64"/>
			<input>
				<port id="0">
					<dim>1</dim>
					<dim>256</dim>
					<dim>24</dim>
					<dim>500</dim>
				</port>
			</input>
			<output>
				<port id="1" precision="FP32" names="215">
					<dim>1</dim>
					<dim>256</dim>
					<dim>12</dim>
					<dim>250</dim>
				</port>
				<port id="2" precision="FP32">
					<dim>1</dim>
					<dim>256</dim>
					<dim>12</dim>
					<dim>250</dim>
					<rt_info/>
				</port>
			</output>
		</layer>
		<layer id="259" name="186718716291" type="Const" version="opset1">
			<data offset="0" size="4" shape="" element_type="f32"/>
			<output>
				<port id="0" precision="FP32"/>
			</output>
		</layer>
		<layer id="260" name="186818726378" type="Const" version="opset1">
			<data offset="1953958" size="4" shape="" element_type="f32"/>
			<output>
				<port id="0" precision="FP32"/>
			</output>
		</layer>
		<layer id="261" name="186918736516" type="Const" version="opset1">
			<data offset="0" size="4" shape="" element_type="f32"/>
			<output>
				<port id="0" precision="FP32"/>
			</output>
		</layer>
		<layer id="262" name="187018746105" type="Const" version="opset1">
			<data offset="1953958" size="4" shape="" element_type="f32"/>
			<output>
				<port id="0" precision="FP32"/>
			</output>
		</layer>
		<layer id="263" name="100310076390" type="Const" version="opset1">
			<data offset="0" size="4" shape="" element_type="f32"/>
			<output>
				<port id="0" precision="FP32"/>
			</output>
		</layer>
		<layer id="264" name="100410086417" type="Const" version="opset1">
			<data offset="1953962" size="4" shape="" element_type="f32"/>
			<output>
				<port id="0" precision="FP32"/>
			</output>
		</layer>
		<layer id="265" name="100510095961" type="Const" version="opset1">
			<data offset="0" size="4" shape="" element_type="f32"/>
			<output>
				<port id="0" precision="FP32"/>
			</output>
		</layer>
		<layer id="266" name="100610106129" type="Const" version="opset1">
			<data offset="1953962" size="4" shape="" element_type="f32"/>
			<output>
				<port id="0" precision="FP32"/>
			</output>
		</layer>
		<layer id="267" name="134313476339" type="Const" version="opset1">
			<data offset="1953966" size="4" shape="" element_type="f32"/>
			<output>
				<port id="0" precision="FP32"/>
			</output>
		</layer>
		<layer id="268" name="134413486312" type="Const" version="opset1">
			<data offset="1953970" size="4" shape="" element_type="f32"/>
			<output>
				<port id="0" precision="FP32"/>
			</output>
		</layer>
		<layer id="269" name="134513496558" type="Const" version="opset1">
			<data offset="1953966" size="4" shape="" element_type="f32"/>
			<output>
				<port id="0" precision="FP32"/>
			</output>
		</layer>
		<layer id="270" name="134613506168" type="Const" version="opset1">
			<data offset="1953970" size="4" shape="" element_type="f32"/>
			<output>
				<port id="0" precision="FP32"/>
			</output>
		</layer>
		<layer id="271" name="194719516438" type="Const" version="opset1">
			<data offset="0" size="4" shape="" element_type="f32"/>
			<output>
				<port id="0" precision="FP32"/>
			</output>
		</layer>
		<layer id="272" name="194819525967" type="Const" version="opset1">
			<data offset="1953974" size="4" shape="" element_type="f32"/>
			<output>
				<port id="0" precision="FP32"/>
			</output>
		</layer>
		<layer id="273" name="194919536213" type="Const" version="opset1">
			<data offset="0" size="4" shape="" element_type="f32"/>
			<output>
				<port id="0" precision="FP32"/>
			</output>
		</layer>
		<layer id="274" name="195019546435" type="Const" version="opset1">
			<data offset="1953974" size="4" shape="" element_type="f32"/>
			<output>
				<port id="0" precision="FP32"/>
			</output>
		</layer>
		<layer id="275" name="138313876003" type="Const" version="opset1">
			<data offset="0" size="4" shape="" element_type="f32"/>
			<output>
				<port id="0" precision="FP32"/>
			</output>
		</layer>
		<layer id="276" name="138413885994" type="Const" version="opset1">
			<data offset="1953978" size="4" shape="" element_type="f32"/>
			<output>
				<port id="0" precision="FP32"/>
			</output>
		</layer>
		<layer id="277" name="138513896060" type="Const" version="opset1">
			<data offset="0" size="4" shape="" element_type="f32"/>
			<output>
				<port id="0" precision="FP32"/>
			</output>
		</layer>
		<layer id="278" name="138613906669" type="Const" version="opset1">
			<data offset="1953978" size="4" shape="" element_type="f32"/>
			<output>
				<port id="0" precision="FP32"/>
			</output>
		</layer>
		<layer id="279" name="193719416540" type="Const" version="opset1">
			<data offset="1953982" size="4" shape="" element_type="f32"/>
			<output>
				<port id="0" precision="FP32"/>
			</output>
		</layer>
		<layer id="280" name="193819426624" type="Const" version="opset1">
			<data offset="1953986" size="4" shape="" element_type="f32"/>
			<output>
				<port id="0" precision="FP32"/>
			</output>
		</layer>
		<layer id="281" name="193919436519" type="Const" version="opset1">
			<data offset="1953982" size="4" shape="" element_type="f32"/>
			<output>
				<port id="0" precision="FP32"/>
			</output>
		</layer>
		<layer id="282" name="194019446009" type="Const" version="opset1">
			<data offset="1953986" size="4" shape="" element_type="f32"/>
			<output>
				<port id="0" precision="FP32"/>
			</output>
		</layer>
		<layer id="283" name="8038076360" type="Const" version="opset1">
			<data offset="1953990" size="4" shape="" element_type="f32"/>
			<output>
				<port id="0" precision="FP32"/>
			</output>
		</layer>
		<layer id="284" name="8048086549" type="Const" version="opset1">
			<data offset="1953994" size="4" shape="" element_type="f32"/>
			<output>
				<port id="0" precision="FP32"/>
			</output>
		</layer>
		<layer id="285" name="8058096498" type="Const" version="opset1">
			<data offset="1953990" size="4" shape="" element_type="f32"/>
			<output>
				<port id="0" precision="FP32"/>
			</output>
		</layer>
		<layer id="286" name="8068106174" type="Const" version="opset1">
			<data offset="1953994" size="4" shape="" element_type="f32"/>
			<output>
				<port id="0" precision="FP32"/>
			</output>
		</layer>
		<layer id="287" name="142314276492" type="Const" version="opset1">
			<data offset="0" size="4" shape="" element_type="f32"/>
			<output>
				<port id="0" precision="FP32"/>
			</output>
		</layer>
		<layer id="288" name="142414286504" type="Const" version="opset1">
			<data offset="1953998" size="4" shape="" element_type="f32"/>
			<output>
				<port id="0" precision="FP32"/>
			</output>
		</layer>
		<layer id="289" name="142514296351" type="Const" version="opset1">
			<data offset="0" size="4" shape="" element_type="f32"/>
			<output>
				<port id="0" precision="FP32"/>
			</output>
		</layer>
		<layer id="290" name="142614306450" type="Const" version="opset1">
			<data offset="1953998" size="4" shape="" element_type="f32"/>
			<output>
				<port id="0" precision="FP32"/>
			</output>
		</layer>
		<layer id="291" name="Multiply_7858/fq_weights_1/scale42876639" type="Const" version="opset1">
			<data offset="1954002" size="2048" shape="512,1,1,1" element_type="f32"/>
			<output>
				<port id="0" precision="FP32">
					<dim>512</dim>
					<dim>1</dim>
					<dim>1</dim>
					<dim>1</dim>
				</port>
			</output>
		</layer>
		<layer id="292" name="Multiply_80253593439/restored_convert/quantized42796183" type="Const" version="opset1">
			<data offset="1956050" size="1179648" shape="512,256,3,3" element_type="i8"/>
			<output>
				<port id="0" precision="I8">
					<dim>512</dim>
					<dim>256</dim>
					<dim>3</dim>
					<dim>3</dim>
				</port>
			</output>
		</layer>
		<layer id="293" name="Multiply_80253593439/restored_convert/quantized/to_f32" type="Convert" version="opset1">
			<data destination_type="f32"/>
			<input>
				<port id="0">
					<dim>512</dim>
					<dim>256</dim>
					<dim>3</dim>
					<dim>3</dim>
				</port>
			</input>
			<output>
				<port id="1" precision="FP32">
					<dim>512</dim>
					<dim>256</dim>
					<dim>3</dim>
					<dim>3</dim>
				</port>
			</output>
		</layer>
		<layer id="294" name="Multiply_7858/fq_weights_1/mulpiply_by_scale" type="Multiply" version="opset1">
			<data auto_broadcast="numpy"/>
			<input>
				<port id="0">
					<dim>512</dim>
					<dim>256</dim>
					<dim>3</dim>
					<dim>3</dim>
				</port>
				<port id="1">
					<dim>512</dim>
					<dim>1</dim>
					<dim>1</dim>
					<dim>1</dim>
				</port>
			</input>
			<output>
				<port id="2" precision="FP32">
					<dim>512</dim>
					<dim>256</dim>
					<dim>3</dim>
					<dim>3</dim>
				</port>
			</output>
		</layer>
		<layer id="295" name="Multiply_7858" type="Convolution" version="opset1">
			<data auto_pad="explicit" strides="1,1" dilations="1,1" pads_begin="1,1" pads_end="1,1"/>
			<input>
				<port id="0">
					<dim>1</dim>
					<dim>256</dim>
					<dim>12</dim>
					<dim>250</dim>
				</port>
				<port id="1">
					<dim>512</dim>
					<dim>256</dim>
					<dim>3</dim>
					<dim>3</dim>
				</port>
			</input>
			<output>
				<port id="2" precision="FP32">
					<dim>1</dim>
					<dim>512</dim>
					<dim>12</dim>
					<dim>250</dim>
				</port>
			</output>
		</layer>
		<layer id="296" name="Constant_78633626543" type="Const" version="opset1">
			<data offset="3135698" size="1024" shape="1,512,1,1" element_type="f16"/>
			<output>
				<port id="0" precision="FP16">
					<dim>1</dim>
					<dim>512</dim>
					<dim>1</dim>
					<dim>1</dim>
				</port>
			</output>
		</layer>
		<layer id="297" name="Constant_78633623440/restored_convert" type="Convert" version="opset1">
			<data destination_type="f32"/>
			<rt_info>
				<attribute name="decompression" version="0"/>
			</rt_info>
			<input>
				<port id="0">
					<dim>1</dim>
					<dim>512</dim>
					<dim>1</dim>
					<dim>1</dim>
				</port>
			</input>
			<output>
				<port id="1" precision="FP32">
					<dim>1</dim>
					<dim>512</dim>
					<dim>1</dim>
					<dim>1</dim>
				</port>
			</output>
		</layer>
		<layer id="298" name="BatchNormalization_78" type="Add" version="opset1">
			<data auto_broadcast="numpy"/>
			<input>
				<port id="0">
					<dim>1</dim>
					<dim>512</dim>
					<dim>12</dim>
					<dim>250</dim>
				</port>
				<port id="1">
					<dim>1</dim>
					<dim>512</dim>
					<dim>1</dim>
					<dim>1</dim>
				</port>
			</input>
			<output>
				<port id="2" precision="FP32" names="217">
					<dim>1</dim>
					<dim>512</dim>
					<dim>12</dim>
					<dim>250</dim>
				</port>
			</output>
		</layer>
		<layer id="299" name="Relu_79" type="ReLU" version="opset1">
			<input>
				<port id="0">
					<dim>1</dim>
					<dim>512</dim>
					<dim>12</dim>
					<dim>250</dim>
				</port>
			</input>
			<output>
				<port id="1" precision="FP32" names="218">
					<dim>1</dim>
					<dim>512</dim>
					<dim>12</dim>
					<dim>250</dim>
				</port>
			</output>
		</layer>
		<layer id="300" name="Multiply_7868/fq_input_0" type="FakeQuantize" version="opset1">
			<data levels="256" auto_broadcast="numpy"/>
			<input>
				<port id="0">
					<dim>1</dim>
					<dim>512</dim>
					<dim>12</dim>
					<dim>250</dim>
				</port>
				<port id="1"/>
				<port id="2"/>
				<port id="3"/>
				<port id="4"/>
			</input>
			<output>
				<port id="5" precision="FP32">
					<dim>1</dim>
					<dim>512</dim>
					<dim>12</dim>
					<dim>250</dim>
				</port>
			</output>
		</layer>
		<layer id="301" name="Multiply_7868/fq_weights_1/scale38975949" type="Const" version="opset1">
			<data offset="3136722" size="2048" shape="512,1,1,1" element_type="f32"/>
			<output>
				<port id="0" precision="FP32">
					<dim>512</dim>
					<dim>1</dim>
					<dim>1</dim>
					<dim>1</dim>
				</port>
			</output>
		</layer>
		<layer id="302" name="Multiply_80343663441/restored_convert/quantized38896468" type="Const" version="opset1">
			<data offset="3138770" size="2359296" shape="512,512,3,3" element_type="i8"/>
			<output>
				<port id="0" precision="I8">
					<dim>512</dim>
					<dim>512</dim>
					<dim>3</dim>
					<dim>3</dim>
				</port>
			</output>
		</layer>
		<layer id="303" name="Multiply_80343663441/restored_convert/quantized/to_f32" type="Convert" version="opset1">
			<data destination_type="f32"/>
			<input>
				<port id="0">
					<dim>512</dim>
					<dim>512</dim>
					<dim>3</dim>
					<dim>3</dim>
				</port>
			</input>
			<output>
				<port id="1" precision="FP32">
					<dim>512</dim>
					<dim>512</dim>
					<dim>3</dim>
					<dim>3</dim>
				</port>
			</output>
		</layer>
		<layer id="304" name="Multiply_7868/fq_weights_1/mulpiply_by_scale" type="Multiply" version="opset1">
			<data auto_broadcast="numpy"/>
			<input>
				<port id="0">
					<dim>512</dim>
					<dim>512</dim>
					<dim>3</dim>
					<dim>3</dim>
				</port>
				<port id="1">
					<dim>512</dim>
					<dim>1</dim>
					<dim>1</dim>
					<dim>1</dim>
				</port>
			</input>
			<output>
				<port id="2" precision="FP32">
					<dim>512</dim>
					<dim>512</dim>
					<dim>3</dim>
					<dim>3</dim>
				</port>
			</output>
		</layer>
		<layer id="305" name="Multiply_7868" type="Convolution" version="opset1">
			<data auto_pad="explicit" strides="1,1" dilations="1,1" pads_begin="1,1" pads_end="1,1"/>
			<input>
				<port id="0">
					<dim>1</dim>
					<dim>512</dim>
					<dim>12</dim>
					<dim>250</dim>
				</port>
				<port id="1">
					<dim>512</dim>
					<dim>512</dim>
					<dim>3</dim>
					<dim>3</dim>
				</port>
			</input>
			<output>
				<port id="2" precision="FP32">
					<dim>1</dim>
					<dim>512</dim>
					<dim>12</dim>
					<dim>250</dim>
				</port>
			</output>
		</layer>
		<layer id="306" name="Constant_78733696399" type="Const" version="opset1">
			<data offset="5498066" size="1024" shape="1,512,1,1" element_type="f16"/>
			<output>
				<port id="0" precision="FP16">
					<dim>1</dim>
					<dim>512</dim>
					<dim>1</dim>
					<dim>1</dim>
				</port>
			</output>
		</layer>
		<layer id="307" name="Constant_78733693442/restored_convert" type="Convert" version="opset1">
			<data destination_type="f32"/>
			<rt_info>
				<attribute name="decompression" version="0"/>
			</rt_info>
			<input>
				<port id="0">
					<dim>1</dim>
					<dim>512</dim>
					<dim>1</dim>
					<dim>1</dim>
				</port>
			</input>
			<output>
				<port id="1" precision="FP32">
					<dim>1</dim>
					<dim>512</dim>
					<dim>1</dim>
					<dim>1</dim>
				</port>
			</output>
		</layer>
		<layer id="308" name="BatchNormalization_81" type="Add" version="opset1">
			<data auto_broadcast="numpy"/>
			<input>
				<port id="0">
					<dim>1</dim>
					<dim>512</dim>
					<dim>12</dim>
					<dim>250</dim>
				</port>
				<port id="1">
					<dim>1</dim>
					<dim>512</dim>
					<dim>1</dim>
					<dim>1</dim>
				</port>
			</input>
			<output>
				<port id="2" precision="FP32" names="220">
					<dim>1</dim>
					<dim>512</dim>
					<dim>12</dim>
					<dim>250</dim>
				</port>
			</output>
		</layer>
		<layer id="309" name="GlobalAveragePool_88/fq_input_0" type="FakeQuantize" version="opset1">
			<data levels="256" auto_broadcast="numpy"/>
			<input>
				<port id="0">
					<dim>1</dim>
					<dim>512</dim>
					<dim>12</dim>
					<dim>250</dim>
				</port>
				<port id="1"/>
				<port id="2"/>
				<port id="3"/>
				<port id="4"/>
			</input>
			<output>
				<port id="5" precision="FP32">
					<dim>1</dim>
					<dim>512</dim>
					<dim>12</dim>
					<dim>250</dim>
				</port>
			</output>
		</layer>
		<layer id="310" name="Range_947371" type="Const" version="opset1">
			<data offset="260994" size="16" shape="2" element_type="i64"/>
			<output>
				<port id="0" precision="I64">
					<dim>2</dim>
				</port>
			</output>
		</layer>
		<layer id="311" name="GlobalAveragePool_88" type="ReduceMean" version="opset1">
			<data keep_dims="true"/>
			<input>
				<port id="0">
					<dim>1</dim>
					<dim>512</dim>
					<dim>12</dim>
					<dim>250</dim>
				</port>
				<port id="1">
					<dim>2</dim>
				</port>
			</input>
			<output>
				<port id="2" precision="FP32" names="227">
					<dim>1</dim>
					<dim>512</dim>
					<dim>1</dim>
					<dim>1</dim>
				</port>
			</output>
		</layer>
		<layer id="312" name="Reshape_92/fq_input_0" type="FakeQuantize" version="opset1">
			<data levels="256" auto_broadcast="numpy"/>
			<input>
				<port id="0">
					<dim>1</dim>
					<dim>512</dim>
					<dim>1</dim>
					<dim>1</dim>
				</port>
				<port id="1"/>
				<port id="2"/>
				<port id="3"/>
				<port id="4"/>
			</input>
			<output>
				<port id="5" precision="FP32">
					<dim>1</dim>
					<dim>512</dim>
					<dim>1</dim>
					<dim>1</dim>
				</port>
			</output>
		</layer>
		<layer id="313" name="Shape_82" type="ShapeOf" version="opset3">
			<data output_type="i64"/>
			<input>
				<port id="0">
					<dim>1</dim>
					<dim>512</dim>
					<dim>12</dim>
					<dim>250</dim>
				</port>
			</input>
			<output>
				<port id="1" precision="I64" names="221,224,246">
					<dim>4</dim>
				</port>
			</output>
		</layer>
		<layer id="314" name="Constant_5120374" type="Const" version="opset1">
			<data offset="261010" size="8" shape="2" element_type="i32"/>
			<output>
				<port id="0" precision="I32">
					<dim>2</dim>
				</port>
			</output>
		</layer>
		<layer id="315" name="Constant_5121375" type="Const" version="opset1">
			<data offset="261018" size="8" shape="" element_type="i64"/>
			<output>
				<port id="0" precision="I64"/>
			</output>
		</layer>
		<layer id="316" name="Gather_5122" type="Gather" version="opset8">
			<data batch_dims="0"/>
			<input>
				<port id="0">
					<dim>4</dim>
				</port>
				<port id="1">
					<dim>2</dim>
				</port>
				<port id="2"/>
			</input>
			<output>
				<port id="3" precision="I64" names="230">
					<dim>2</dim>
				</port>
			</output>
		</layer>
		<layer id="317" name="Reshape_92" type="Reshape" version="opset1">
			<data special_zero="true"/>
			<input>
				<port id="0">
					<dim>1</dim>
					<dim>512</dim>
					<dim>1</dim>
					<dim>1</dim>
				</port>
				<port id="1">
					<dim>2</dim>
				</port>
			</input>
			<output>
				<port id="2" precision="FP32" names="231">
					<dim>1</dim>
					<dim>512</dim>
				</port>
			</output>
		</layer>
		<layer id="318" name="MatMul_93/fq_weights_1/scale40176081" type="Const" version="opset1">
			<data offset="5499090" size="256" shape="64,1" element_type="f32"/>
			<output>
				<port id="0" precision="FP32">
					<dim>64</dim>
					<dim>1</dim>
				</port>
			</output>
		</layer>
		<layer id="319" name="Constant_55693793446/restored_convert/quantized40096294" type="Const" version="opset1">
			<data offset="5499346" size="32768" shape="64,512" element_type="i8"/>
			<output>
				<port id="0" precision="I8">
					<dim>64</dim>
					<dim>512</dim>
				</port>
			</output>
		</layer>
		<layer id="320" name="Constant_55693793446/restored_convert/quantized/to_f32" type="Convert" version="opset1">
			<data destination_type="f32"/>
			<input>
				<port id="0">
					<dim>64</dim>
					<dim>512</dim>
				</port>
			</input>
			<output>
				<port id="1" precision="FP32">
					<dim>64</dim>
					<dim>512</dim>
				</port>
			</output>
		</layer>
		<layer id="321" name="MatMul_93/fq_weights_1/mulpiply_by_scale" type="Multiply" version="opset1">
			<data auto_broadcast="numpy"/>
			<input>
				<port id="0">
					<dim>64</dim>
					<dim>512</dim>
				</port>
				<port id="1">
					<dim>64</dim>
					<dim>1</dim>
				</port>
			</input>
			<output>
				<port id="2" precision="FP32">
					<dim>64</dim>
					<dim>512</dim>
				</port>
			</output>
		</layer>
		<layer id="322" name="MatMul_93" type="MatMul" version="opset1">
			<data transpose_a="false" transpose_b="true"/>
			<input>
				<port id="0">
					<dim>1</dim>
					<dim>512</dim>
				</port>
				<port id="1">
					<dim>64</dim>
					<dim>512</dim>
				</port>
			</input>
			<output>
				<port id="2" precision="FP32" names="233">
					<dim>1</dim>
					<dim>64</dim>
				</port>
			</output>
		</layer>
		<layer id="323" name="Relu_94" type="ReLU" version="opset1">
			<input>
				<port id="0">
					<dim>1</dim>
					<dim>64</dim>
				</port>
			</input>
			<output>
				<port id="1" precision="FP32" names="234">
					<dim>1</dim>
					<dim>64</dim>
				</port>
			</output>
		</layer>
		<layer id="324" name="MatMul_95/fq_input_0" type="FakeQuantize" version="opset1">
			<data levels="256" auto_broadcast="numpy"/>
			<input>
				<port id="0">
					<dim>1</dim>
					<dim>64</dim>
				</port>
				<port id="1"/>
				<port id="2"/>
				<port id="3"/>
				<port id="4"/>
			</input>
			<output>
				<port id="5" precision="FP32">
					<dim>1</dim>
					<dim>64</dim>
				</port>
			</output>
		</layer>
		<layer id="325" name="MatMul_95/fq_weights_1/scale41676219" type="Const" version="opset1">
			<data offset="5532114" size="2048" shape="512,1" element_type="f32"/>
			<output>
				<port id="0" precision="FP32">
					<dim>512</dim>
					<dim>1</dim>
				</port>
			</output>
		</layer>
		<layer id="326" name="Constant_55763833447/restored_convert/quantized41596285" type="Const" version="opset1">
			<data offset="5534162" size="32768" shape="512,64" element_type="i8"/>
			<output>
				<port id="0" precision="I8">
					<dim>512</dim>
					<dim>64</dim>
				</port>
			</output>
		</layer>
		<layer id="327" name="Constant_55763833447/restored_convert/quantized/to_f32" type="Convert" version="opset1">
			<data destination_type="f32"/>
			<input>
				<port id="0">
					<dim>512</dim>
					<dim>64</dim>
				</port>
			</input>
			<output>
				<port id="1" precision="FP32">
					<dim>512</dim>
					<dim>64</dim>
				</port>
			</output>
		</layer>
		<layer id="328" name="MatMul_95/fq_weights_1/mulpiply_by_scale" type="Multiply" version="opset1">
			<data auto_broadcast="numpy"/>
			<input>
				<port id="0">
					<dim>512</dim>
					<dim>64</dim>
				</port>
				<port id="1">
					<dim>512</dim>
					<dim>1</dim>
				</port>
			</input>
			<output>
				<port id="2" precision="FP32">
					<dim>512</dim>
					<dim>64</dim>
				</port>
			</output>
		</layer>
		<layer id="329" name="MatMul_95" type="MatMul" version="opset1">
			<data transpose_a="false" transpose_b="true"/>
			<input>
				<port id="0">
					<dim>1</dim>
					<dim>64</dim>
				</port>
				<port id="1">
					<dim>512</dim>
					<dim>64</dim>
				</port>
			</input>
			<output>
				<port id="2" precision="FP32" names="236">
					<dim>1</dim>
					<dim>512</dim>
				</port>
			</output>
		</layer>
		<layer id="330" name="Sigmoid_96" type="Sigmoid" version="opset1">
			<input>
				<port id="0">
					<dim>1</dim>
					<dim>512</dim>
				</port>
			</input>
			<output>
				<port id="1" precision="FP32" names="237">
					<dim>1</dim>
					<dim>512</dim>
				</port>
			</output>
		</layer>
		<layer id="331" name="Reshape_100/fq_input_0" type="FakeQuantize" version="opset1">
			<data levels="256" auto_broadcast="numpy"/>
			<input>
				<port id="0">
					<dim>1</dim>
					<dim>512</dim>
				</port>
				<port id="1"/>
				<port id="2"/>
				<port id="3"/>
				<port id="4"/>
			</input>
			<output>
				<port id="5" precision="FP32">
					<dim>1</dim>
					<dim>512</dim>
				</port>
			</output>
		</layer>
		<layer id="332" name="Constant_5124386" type="Const" version="opset1">
			<data offset="261010" size="8" shape="2" element_type="i32"/>
			<output>
				<port id="0" precision="I32">
					<dim>2</dim>
				</port>
			</output>
		</layer>
		<layer id="333" name="Constant_5125387" type="Const" version="opset1">
			<data offset="261018" size="8" shape="" element_type="i64"/>
			<output>
				<port id="0" precision="I64"/>
			</output>
		</layer>
		<layer id="334" name="Gather_5126" type="Gather" version="opset8">
			<data batch_dims="0"/>
			<input>
				<port id="0">
					<dim>4</dim>
				</port>
				<port id="1">
					<dim>2</dim>
				</port>
				<port id="2"/>
			</input>
			<output>
				<port id="3" precision="I64">
					<dim>2</dim>
				</port>
			</output>
		</layer>
		<layer id="335" name="3133896552" type="Const" version="opset1">
			<data offset="265698" size="8" shape="1" element_type="i64"/>
			<output>
				<port id="0" precision="I64" names="313">
					<dim>1</dim>
				</port>
			</output>
		</layer>
		<layer id="336" name="3143906306" type="Const" version="opset1">
			<data offset="265698" size="8" shape="1" element_type="i64"/>
			<output>
				<port id="0" precision="I64" names="314">
					<dim>1</dim>
				</port>
			</output>
		</layer>
		<layer id="337" name="Concat_99" type="Concat" version="opset1">
			<data axis="0"/>
			<input>
				<port id="0">
					<dim>2</dim>
				</port>
				<port id="1">
					<dim>1</dim>
				</port>
				<port id="2">
					<dim>1</dim>
				</port>
			</input>
			<output>
				<port id="3" precision="I64" names="244">
					<dim>4</dim>
				</port>
			</output>
		</layer>
		<layer id="338" name="Reshape_100" type="Reshape" version="opset1">
			<data special_zero="true"/>
			<input>
				<port id="0">
					<dim>1</dim>
					<dim>512</dim>
				</port>
				<port id="1">
					<dim>4</dim>
				</port>
			</input>
			<output>
				<port id="2" precision="FP32" names="245,247">
					<dim>1</dim>
					<dim>512</dim>
					<dim>1</dim>
					<dim>1</dim>
				</port>
			</output>
		</layer>
		<layer id="339" name="Mul_103" type="Multiply" version="opset1">
			<data auto_broadcast="numpy"/>
			<input>
				<port id="0">
					<dim>1</dim>
					<dim>512</dim>
					<dim>12</dim>
					<dim>250</dim>
				</port>
				<port id="1">
					<dim>1</dim>
					<dim>512</dim>
					<dim>1</dim>
					<dim>1</dim>
				</port>
			</input>
			<output>
				<port id="2" precision="FP32" names="248">
					<dim>1</dim>
					<dim>512</dim>
					<dim>12</dim>
					<dim>250</dim>
				</port>
			</output>
		</layer>
		<layer id="340" name="Add_106/fq_input_0" type="FakeQuantize" version="opset1">
			<data levels="256" auto_broadcast="numpy"/>
			<input>
				<port id="0">
					<dim>1</dim>
					<dim>512</dim>
					<dim>12</dim>
					<dim>250</dim>
				</port>
				<port id="1"/>
				<port id="2"/>
				<port id="3"/>
				<port id="4"/>
			</input>
			<output>
				<port id="5" precision="FP32">
					<dim>1</dim>
					<dim>512</dim>
					<dim>12</dim>
					<dim>250</dim>
				</port>
			</output>
		</layer>
		<layer id="341" name="135313576024" type="Const" version="opset1">
			<data offset="5566930" size="4" shape="" element_type="f32"/>
			<output>
				<port id="0" precision="FP32"/>
			</output>
		</layer>
		<layer id="342" name="135413586642" type="Const" version="opset1">
			<data offset="5566934" size="4" shape="" element_type="f32"/>
			<output>
				<port id="0" precision="FP32"/>
			</output>
		</layer>
		<layer id="343" name="135513596651" type="Const" version="opset1">
			<data offset="5566930" size="4" shape="" element_type="f32"/>
			<output>
				<port id="0" precision="FP32"/>
			</output>
		</layer>
		<layer id="344" name="135613606198" type="Const" version="opset1">
			<data offset="5566934" size="4" shape="" element_type="f32"/>
			<output>
				<port id="0" precision="FP32"/>
			</output>
		</layer>
		<layer id="345" name="Multiply_7875/fq_weights_1/scale39876372" type="Const" version="opset1">
			<data offset="5566938" size="2048" shape="512,1,1,1" element_type="f32"/>
			<output>
				<port id="0" precision="FP32">
					<dim>512</dim>
					<dim>1</dim>
					<dim>1</dim>
					<dim>1</dim>
				</port>
			</output>
		</layer>
		<layer id="346" name="Multiply_80433953452/restored_convert/quantized39795946" type="Const" version="opset1">
			<data offset="5568986" size="131072" shape="512,256,1,1" element_type="i8"/>
			<output>
				<port id="0" precision="I8">
					<dim>512</dim>
					<dim>256</dim>
					<dim>1</dim>
					<dim>1</dim>
				</port>
			</output>
		</layer>
		<layer id="347" name="Multiply_80433953452/restored_convert/quantized/to_f32" type="Convert" version="opset1">
			<data destination_type="f32"/>
			<input>
				<port id="0">
					<dim>512</dim>
					<dim>256</dim>
					<dim>1</dim>
					<dim>1</dim>
				</port>
			</input>
			<output>
				<port id="1" precision="FP32">
					<dim>512</dim>
					<dim>256</dim>
					<dim>1</dim>
					<dim>1</dim>
				</port>
			</output>
		</layer>
		<layer id="348" name="Multiply_7875/fq_weights_1/mulpiply_by_scale" type="Multiply" version="opset1">
			<data auto_broadcast="numpy"/>
			<input>
				<port id="0">
					<dim>512</dim>
					<dim>256</dim>
					<dim>1</dim>
					<dim>1</dim>
				</port>
				<port id="1">
					<dim>512</dim>
					<dim>1</dim>
					<dim>1</dim>
					<dim>1</dim>
				</port>
			</input>
			<output>
				<port id="2" precision="FP32">
					<dim>512</dim>
					<dim>256</dim>
					<dim>1</dim>
					<dim>1</dim>
				</port>
			</output>
		</layer>
		<layer id="349" name="Multiply_7875" type="Convolution" version="opset1">
			<data auto_pad="explicit" strides="1,1" dilations="1,1" pads_begin="0,0" pads_end="0,0"/>
			<input>
				<port id="0">
					<dim>1</dim>
					<dim>256</dim>
					<dim>12</dim>
					<dim>250</dim>
				</port>
				<port id="1">
					<dim>512</dim>
					<dim>256</dim>
					<dim>1</dim>
					<dim>1</dim>
				</port>
			</input>
			<output>
				<port id="2" precision="FP32">
					<dim>1</dim>
					<dim>512</dim>
					<dim>12</dim>
					<dim>250</dim>
				</port>
			</output>
		</layer>
		<layer id="350" name="Constant_78803986057" type="Const" version="opset1">
			<data offset="5700058" size="1024" shape="1,512,1,1" element_type="f16"/>
			<output>
				<port id="0" precision="FP16">
					<dim>1</dim>
					<dim>512</dim>
					<dim>1</dim>
					<dim>1</dim>
				</port>
			</output>
		</layer>
		<layer id="351" name="Constant_78803983453/restored_convert" type="Convert" version="opset1">
			<data destination_type="f32"/>
			<rt_info>
				<attribute name="decompression" version="0"/>
			</rt_info>
			<input>
				<port id="0">
					<dim>1</dim>
					<dim>512</dim>
					<dim>1</dim>
					<dim>1</dim>
				</port>
			</input>
			<output>
				<port id="1" precision="FP32">
					<dim>1</dim>
					<dim>512</dim>
					<dim>1</dim>
					<dim>1</dim>
				</port>
			</output>
		</layer>
		<layer id="352" name="BatchNormalization_105" type="Add" version="opset1">
			<data auto_broadcast="numpy"/>
			<input>
				<port id="0">
					<dim>1</dim>
					<dim>512</dim>
					<dim>12</dim>
					<dim>250</dim>
				</port>
				<port id="1">
					<dim>1</dim>
					<dim>512</dim>
					<dim>1</dim>
					<dim>1</dim>
				</port>
			</input>
			<output>
				<port id="2" precision="FP32" names="250">
					<dim>1</dim>
					<dim>512</dim>
					<dim>12</dim>
					<dim>250</dim>
				</port>
			</output>
		</layer>
		<layer id="353" name="Add_106/fq_input_1" type="FakeQuantize" version="opset1">
			<data levels="256" auto_broadcast="numpy"/>
			<input>
				<port id="0">
					<dim>1</dim>
					<dim>512</dim>
					<dim>12</dim>
					<dim>250</dim>
				</port>
				<port id="1"/>
				<port id="2"/>
				<port id="3"/>
				<port id="4"/>
			</input>
			<output>
				<port id="5" precision="FP32">
					<dim>1</dim>
					<dim>512</dim>
					<dim>12</dim>
					<dim>250</dim>
				</port>
			</output>
		</layer>
		<layer id="354" name="Add_106" type="Add" version="opset1">
			<data auto_broadcast="numpy"/>
			<input>
				<port id="0">
					<dim>1</dim>
					<dim>512</dim>
					<dim>12</dim>
					<dim>250</dim>
				</port>
				<port id="1">
					<dim>1</dim>
					<dim>512</dim>
					<dim>12</dim>
					<dim>250</dim>
				</port>
			</input>
			<output>
				<port id="2" precision="FP32" names="251">
					<dim>1</dim>
					<dim>512</dim>
					<dim>12</dim>
					<dim>250</dim>
				</port>
			</output>
		</layer>
		<layer id="355" name="Relu_107" type="ReLU" version="opset1">
			<input>
				<port id="0">
					<dim>1</dim>
					<dim>512</dim>
					<dim>12</dim>
					<dim>250</dim>
				</port>
			</input>
			<output>
				<port id="1" precision="FP32" names="252">
					<dim>1</dim>
					<dim>512</dim>
					<dim>12</dim>
					<dim>250</dim>
				</port>
			</output>
		</layer>
		<layer id="356" name="Multiply_7885/fq_input_0" type="FakeQuantize" version="opset1">
			<data levels="256" auto_broadcast="numpy"/>
			<input>
				<port id="0">
					<dim>1</dim>
					<dim>512</dim>
					<dim>12</dim>
					<dim>250</dim>
				</port>
				<port id="1"/>
				<port id="2"/>
				<port id="3"/>
				<port id="4"/>
			</input>
			<output>
				<port id="5" precision="FP32">
					<dim>1</dim>
					<dim>512</dim>
					<dim>12</dim>
					<dim>250</dim>
				</port>
			</output>
		</layer>
		<layer id="357" name="Multiply_7885/fq_weights_1/scale45876321" type="Const" version="opset1">
			<data offset="5701082" size="2048" shape="512,1,1,1" element_type="f32"/>
			<output>
				<port id="0" precision="FP32">
					<dim>512</dim>
					<dim>1</dim>
					<dim>1</dim>
					<dim>1</dim>
				</port>
			</output>
		</layer>
		<layer id="358" name="Multiply_80524033454/restored_convert/quantized45796267" type="Const" version="opset1">
			<data offset="5703130" size="2359296" shape="512,512,3,3" element_type="i8"/>
			<output>
				<port id="0" precision="I8">
					<dim>512</dim>
					<dim>512</dim>
					<dim>3</dim>
					<dim>3</dim>
				</port>
			</output>
		</layer>
		<layer id="359" name="Multiply_80524033454/restored_convert/quantized/to_f32" type="Convert" version="opset1">
			<data destination_type="f32"/>
			<input>
				<port id="0">
					<dim>512</dim>
					<dim>512</dim>
					<dim>3</dim>
					<dim>3</dim>
				</port>
			</input>
			<output>
				<port id="1" precision="FP32">
					<dim>512</dim>
					<dim>512</dim>
					<dim>3</dim>
					<dim>3</dim>
				</port>
			</output>
		</layer>
		<layer id="360" name="Multiply_7885/fq_weights_1/mulpiply_by_scale" type="Multiply" version="opset1">
			<data auto_broadcast="numpy"/>
			<input>
				<port id="0">
					<dim>512</dim>
					<dim>512</dim>
					<dim>3</dim>
					<dim>3</dim>
				</port>
				<port id="1">
					<dim>512</dim>
					<dim>1</dim>
					<dim>1</dim>
					<dim>1</dim>
				</port>
			</input>
			<output>
				<port id="2" precision="FP32">
					<dim>512</dim>
					<dim>512</dim>
					<dim>3</dim>
					<dim>3</dim>
				</port>
			</output>
		</layer>
		<layer id="361" name="Multiply_7885" type="Convolution" version="opset1">
			<data auto_pad="explicit" strides="1,1" dilations="1,1" pads_begin="1,1" pads_end="1,1"/>
			<input>
				<port id="0">
					<dim>1</dim>
					<dim>512</dim>
					<dim>12</dim>
					<dim>250</dim>
				</port>
				<port id="1">
					<dim>512</dim>
					<dim>512</dim>
					<dim>3</dim>
					<dim>3</dim>
				</port>
			</input>
			<output>
				<port id="2" precision="FP32">
					<dim>1</dim>
					<dim>512</dim>
					<dim>12</dim>
					<dim>250</dim>
				</port>
			</output>
		</layer>
		<layer id="362" name="Constant_78904066594" type="Const" version="opset1">
			<data offset="8062426" size="1024" shape="1,512,1,1" element_type="f16"/>
			<output>
				<port id="0" precision="FP16">
					<dim>1</dim>
					<dim>512</dim>
					<dim>1</dim>
					<dim>1</dim>
				</port>
			</output>
		</layer>
		<layer id="363" name="Constant_78904063455/restored_convert" type="Convert" version="opset1">
			<data destination_type="f32"/>
			<rt_info>
				<attribute name="decompression" version="0"/>
			</rt_info>
			<input>
				<port id="0">
					<dim>1</dim>
					<dim>512</dim>
					<dim>1</dim>
					<dim>1</dim>
				</port>
			</input>
			<output>
				<port id="1" precision="FP32">
					<dim>1</dim>
					<dim>512</dim>
					<dim>1</dim>
					<dim>1</dim>
				</port>
			</output>
		</layer>
		<layer id="364" name="BatchNormalization_109" type="Add" version="opset1">
			<data auto_broadcast="numpy"/>
			<input>
				<port id="0">
					<dim>1</dim>
					<dim>512</dim>
					<dim>12</dim>
					<dim>250</dim>
				</port>
				<port id="1">
					<dim>1</dim>
					<dim>512</dim>
					<dim>1</dim>
					<dim>1</dim>
				</port>
			</input>
			<output>
				<port id="2" precision="FP32" names="254">
					<dim>1</dim>
					<dim>512</dim>
					<dim>12</dim>
					<dim>250</dim>
				</port>
			</output>
		</layer>
		<layer id="365" name="Relu_110" type="ReLU" version="opset1">
			<input>
				<port id="0">
					<dim>1</dim>
					<dim>512</dim>
					<dim>12</dim>
					<dim>250</dim>
				</port>
			</input>
			<output>
				<port id="1" precision="FP32" names="255">
					<dim>1</dim>
					<dim>512</dim>
					<dim>12</dim>
					<dim>250</dim>
				</port>
			</output>
		</layer>
		<layer id="366" name="MaxPool_111/fq_input_0" type="FakeQuantize" version="opset1">
			<data levels="256" auto_broadcast="numpy"/>
			<input>
				<port id="0">
					<dim>1</dim>
					<dim>512</dim>
					<dim>12</dim>
					<dim>250</dim>
				</port>
				<port id="1"/>
				<port id="2"/>
				<port id="3"/>
				<port id="4"/>
			</input>
			<output>
				<port id="5" precision="FP32">
					<dim>1</dim>
					<dim>512</dim>
					<dim>12</dim>
					<dim>250</dim>
				</port>
			</output>
		</layer>
		<layer id="367" name="MaxPool_111" type="MaxPool" version="opset8">
			<data strides="2,2" kernel="2,2" pads_begin="0,0" pads_end="0,0" rounding_type="floor" auto_pad="explicit" dilations="1,1" axis="0" index_element_type="i64"/>
			<input>
				<port id="0">
					<dim>1</dim>
					<dim>512</dim>
					<dim>12</dim>
					<dim>250</dim>
				</port>
			</input>
			<output>
				<port id="1" precision="FP32" names="256">
					<dim>1</dim>
					<dim>512</dim>
					<dim>6</dim>
					<dim>125</dim>
				</port>
				<port id="2" precision="FP32">
					<dim>1</dim>
					<dim>512</dim>
					<dim>6</dim>
					<dim>125</dim>
					<rt_info/>
				</port>
			</output>
		</layer>
		<layer id="369" name="190719116123" type="Const" version="opset1">
			<data offset="0" size="4" shape="" element_type="f32"/>
			<output>
				<port id="0" precision="FP32"/>
			</output>
		</layer>
		<layer id="370" name="190819126396" type="Const" version="opset1">
			<data offset="8063450" size="4" shape="" element_type="f32"/>
			<output>
				<port id="0" precision="FP32"/>
			</output>
		</layer>
		<layer id="371" name="190919136636" type="Const" version="opset1">
			<data offset="0" size="4" shape="" element_type="f32"/>
			<output>
				<port id="0" precision="FP32"/>
			</output>
		</layer>
		<layer id="372" name="191019146063" type="Const" version="opset1">
			<data offset="8063450" size="4" shape="" element_type="f32"/>
			<output>
				<port id="0" precision="FP32"/>
			</output>
		</layer>
		<layer id="373" name="8338376102" type="Const" version="opset1">
			<data offset="0" size="4" shape="" element_type="f32"/>
			<output>
				<port id="0" precision="FP32"/>
			</output>
		</layer>
		<layer id="374" name="8348386579" type="Const" version="opset1">
			<data offset="8063454" size="4" shape="" element_type="f32"/>
			<output>
				<port id="0" precision="FP32"/>
			</output>
		</layer>
		<layer id="375" name="8358396156" type="Const" version="opset1">
			<data offset="0" size="4" shape="" element_type="f32"/>
			<output>
				<port id="0" precision="FP32"/>
			</output>
		</layer>
		<layer id="376" name="8368406270" type="Const" version="opset1">
			<data offset="8063454" size="4" shape="" element_type="f32"/>
			<output>
				<port id="0" precision="FP32"/>
			</output>
		</layer>
		<layer id="377" name="116311676666" type="Const" version="opset1">
			<data offset="8063458" size="4" shape="" element_type="f32"/>
			<output>
				<port id="0" precision="FP32"/>
			</output>
		</layer>
		<layer id="378" name="116411686084" type="Const" version="opset1">
			<data offset="8063462" size="4" shape="" element_type="f32"/>
			<output>
				<port id="0" precision="FP32"/>
			</output>
		</layer>
		<layer id="379" name="116511696132" type="Const" version="opset1">
			<data offset="8063458" size="4" shape="" element_type="f32"/>
			<output>
				<port id="0" precision="FP32"/>
			</output>
		</layer>
		<layer id="380" name="116611706222" type="Const" version="opset1">
			<data offset="8063462" size="4" shape="" element_type="f32"/>
			<output>
				<port id="0" precision="FP32"/>
			</output>
		</layer>
		<layer id="381" name="195719616672" type="Const" version="opset1">
			<data offset="0" size="4" shape="" element_type="f32"/>
			<output>
				<port id="0" precision="FP32"/>
			</output>
		</layer>
		<layer id="382" name="195819626699" type="Const" version="opset1">
			<data offset="8063466" size="4" shape="" element_type="f32"/>
			<output>
				<port id="0" precision="FP32"/>
			</output>
		</layer>
		<layer id="383" name="195919636513" type="Const" version="opset1">
			<data offset="0" size="4" shape="" element_type="f32"/>
			<output>
				<port id="0" precision="FP32"/>
			</output>
		</layer>
		<layer id="384" name="196019646546" type="Const" version="opset1">
			<data offset="8063466" size="4" shape="" element_type="f32"/>
			<output>
				<port id="0" precision="FP32"/>
			</output>
		</layer>
		<layer id="385" name="103310376216" type="Const" version="opset1">
			<data offset="0" size="4" shape="" element_type="f32"/>
			<output>
				<port id="0" precision="FP32"/>
			</output>
		</layer>
		<layer id="386" name="103410386402" type="Const" version="opset1">
			<data offset="8063470" size="4" shape="" element_type="f32"/>
			<output>
				<port id="0" precision="FP32"/>
			</output>
		</layer>
		<layer id="387" name="103510396621" type="Const" version="opset1">
			<data offset="0" size="4" shape="" element_type="f32"/>
			<output>
				<port id="0" precision="FP32"/>
			</output>
		</layer>
		<layer id="388" name="103610406210" type="Const" version="opset1">
			<data offset="8063470" size="4" shape="" element_type="f32"/>
			<output>
				<port id="0" precision="FP32"/>
			</output>
		</layer>
		<layer id="389" name="187718816588" type="Const" version="opset1">
			<data offset="8063474" size="4" shape="" element_type="f32"/>
			<output>
				<port id="0" precision="FP32"/>
			</output>
		</layer>
		<layer id="390" name="187818826576" type="Const" version="opset1">
			<data offset="8063478" size="4" shape="" element_type="f32"/>
			<output>
				<port id="0" precision="FP32"/>
			</output>
		</layer>
		<layer id="391" name="187918836414" type="Const" version="opset1">
			<data offset="8063474" size="4" shape="" element_type="f32"/>
			<output>
				<port id="0" precision="FP32"/>
			</output>
		</layer>
		<layer id="392" name="188018846432" type="Const" version="opset1">
			<data offset="8063478" size="4" shape="" element_type="f32"/>
			<output>
				<port id="0" precision="FP32"/>
			</output>
		</layer>
		<layer id="393" name="107310775997" type="Const" version="opset1">
			<data offset="8063482" size="4" shape="" element_type="f32"/>
			<output>
				<port id="0" precision="FP32"/>
			</output>
		</layer>
		<layer id="394" name="107410786483" type="Const" version="opset1">
			<data offset="8063486" size="4" shape="" element_type="f32"/>
			<output>
				<port id="0" precision="FP32"/>
			</output>
		</layer>
		<layer id="395" name="107510796072" type="Const" version="opset1">
			<data offset="8063482" size="4" shape="" element_type="f32"/>
			<output>
				<port id="0" precision="FP32"/>
			</output>
		</layer>
		<layer id="396" name="107610806165" type="Const" version="opset1">
			<data offset="8063486" size="4" shape="" element_type="f32"/>
			<output>
				<port id="0" precision="FP32"/>
			</output>
		</layer>
		<layer id="397" name="9839876465" type="Const" version="opset1">
			<data offset="0" size="4" shape="" element_type="f32"/>
			<output>
				<port id="0" precision="FP32"/>
			</output>
		</layer>
		<layer id="398" name="9849886159" type="Const" version="opset1">
			<data offset="8063490" size="4" shape="" element_type="f32"/>
			<output>
				<port id="0" precision="FP32"/>
			</output>
		</layer>
		<layer id="399" name="9859896249" type="Const" version="opset1">
			<data offset="0" size="4" shape="" element_type="f32"/>
			<output>
				<port id="0" precision="FP32"/>
			</output>
		</layer>
		<layer id="400" name="9869905958" type="Const" version="opset1">
			<data offset="8063490" size="4" shape="" element_type="f32"/>
			<output>
				<port id="0" precision="FP32"/>
			</output>
		</layer>
		<layer id="401" name="Multiply_7895/fq_weights_1/scale44376264" type="Const" version="opset1">
			<data offset="8063494" size="2048" shape="512,1,1,1" element_type="f32"/>
			<output>
				<port id="0" precision="FP32">
					<dim>512</dim>
					<dim>1</dim>
					<dim>1</dim>
					<dim>1</dim>
				</port>
			</output>
		</layer>
		<layer id="402" name="Multiply_80614113456/restored_convert/quantized44296204" type="Const" version="opset1">
			<data offset="8065542" size="2359296" shape="512,512,3,3" element_type="i8"/>
			<output>
				<port id="0" precision="I8">
					<dim>512</dim>
					<dim>512</dim>
					<dim>3</dim>
					<dim>3</dim>
				</port>
			</output>
		</layer>
		<layer id="403" name="Multiply_80614113456/restored_convert/quantized/to_f32" type="Convert" version="opset1">
			<data destination_type="f32"/>
			<input>
				<port id="0">
					<dim>512</dim>
					<dim>512</dim>
					<dim>3</dim>
					<dim>3</dim>
				</port>
			</input>
			<output>
				<port id="1" precision="FP32">
					<dim>512</dim>
					<dim>512</dim>
					<dim>3</dim>
					<dim>3</dim>
				</port>
			</output>
		</layer>
		<layer id="404" name="Multiply_7895/fq_weights_1/mulpiply_by_scale" type="Multiply" version="opset1">
			<data auto_broadcast="numpy"/>
			<input>
				<port id="0">
					<dim>512</dim>
					<dim>512</dim>
					<dim>3</dim>
					<dim>3</dim>
				</port>
				<port id="1">
					<dim>512</dim>
					<dim>1</dim>
					<dim>1</dim>
					<dim>1</dim>
				</port>
			</input>
			<output>
				<port id="2" precision="FP32">
					<dim>512</dim>
					<dim>512</dim>
					<dim>3</dim>
					<dim>3</dim>
				</port>
			</output>
		</layer>
		<layer id="405" name="Multiply_7895" type="Convolution" version="opset1">
			<data auto_pad="explicit" strides="1,1" dilations="1,1" pads_begin="1,1" pads_end="1,1"/>
			<input>
				<port id="0">
					<dim>1</dim>
					<dim>512</dim>
					<dim>6</dim>
					<dim>125</dim>
				</port>
				<port id="1">
					<dim>512</dim>
					<dim>512</dim>
					<dim>3</dim>
					<dim>3</dim>
				</port>
			</input>
			<output>
				<port id="2" precision="FP32">
					<dim>1</dim>
					<dim>512</dim>
					<dim>6</dim>
					<dim>125</dim>
				</port>
			</output>
		</layer>
		<layer id="406" name="Constant_79004146006" type="Const" version="opset1">
			<data offset="10424838" size="1024" shape="1,512,1,1" element_type="f16"/>
			<output>
				<port id="0" precision="FP16">
					<dim>1</dim>
					<dim>512</dim>
					<dim>1</dim>
					<dim>1</dim>
				</port>
			</output>
		</layer>
		<layer id="407" name="Constant_79004143457/restored_convert" type="Convert" version="opset1">
			<data destination_type="f32"/>
			<rt_info>
				<attribute name="decompression" version="0"/>
			</rt_info>
			<input>
				<port id="0">
					<dim>1</dim>
					<dim>512</dim>
					<dim>1</dim>
					<dim>1</dim>
				</port>
			</input>
			<output>
				<port id="1" precision="FP32">
					<dim>1</dim>
					<dim>512</dim>
					<dim>1</dim>
					<dim>1</dim>
				</port>
			</output>
		</layer>
		<layer id="408" name="BatchNormalization_113" type="Add" version="opset1">
			<data auto_broadcast="numpy"/>
			<input>
				<port id="0">
					<dim>1</dim>
					<dim>512</dim>
					<dim>6</dim>
					<dim>125</dim>
				</port>
				<port id="1">
					<dim>1</dim>
					<dim>512</dim>
					<dim>1</dim>
					<dim>1</dim>
				</port>
			</input>
			<output>
				<port id="2" precision="FP32" names="258">
					<dim>1</dim>
					<dim>512</dim>
					<dim>6</dim>
					<dim>125</dim>
				</port>
			</output>
		</layer>
		<layer id="409" name="Relu_114" type="ReLU" version="opset1">
			<input>
				<port id="0">
					<dim>1</dim>
					<dim>512</dim>
					<dim>6</dim>
					<dim>125</dim>
				</port>
			</input>
			<output>
				<port id="1" precision="FP32" names="259">
					<dim>1</dim>
					<dim>512</dim>
					<dim>6</dim>
					<dim>125</dim>
				</port>
			</output>
		</layer>
		<layer id="410" name="Multiply_7905/fq_input_0" type="FakeQuantize" version="opset1">
			<data levels="256" auto_broadcast="numpy"/>
			<input>
				<port id="0">
					<dim>1</dim>
					<dim>512</dim>
					<dim>6</dim>
					<dim>125</dim>
				</port>
				<port id="1"/>
				<port id="2"/>
				<port id="3"/>
				<port id="4"/>
			</input>
			<output>
				<port id="5" precision="FP32">
					<dim>1</dim>
					<dim>512</dim>
					<dim>6</dim>
					<dim>125</dim>
				</port>
			</output>
		</layer>
		<layer id="411" name="Multiply_7905/fq_weights_1/scale44676366" type="Const" version="opset1">
			<data offset="10425862" size="2048" shape="512,1,1,1" element_type="f32"/>
			<output>
				<port id="0" precision="FP32">
					<dim>512</dim>
					<dim>1</dim>
					<dim>1</dim>
					<dim>1</dim>
				</port>
			</output>
		</layer>
		<layer id="412" name="Multiply_80704183458/restored_convert/quantized44596333" type="Const" version="opset1">
			<data offset="10427910" size="2359296" shape="512,512,3,3" element_type="i8"/>
			<output>
				<port id="0" precision="I8">
					<dim>512</dim>
					<dim>512</dim>
					<dim>3</dim>
					<dim>3</dim>
				</port>
			</output>
		</layer>
		<layer id="413" name="Multiply_80704183458/restored_convert/quantized/to_f32" type="Convert" version="opset1">
			<data destination_type="f32"/>
			<input>
				<port id="0">
					<dim>512</dim>
					<dim>512</dim>
					<dim>3</dim>
					<dim>3</dim>
				</port>
			</input>
			<output>
				<port id="1" precision="FP32">
					<dim>512</dim>
					<dim>512</dim>
					<dim>3</dim>
					<dim>3</dim>
				</port>
			</output>
		</layer>
		<layer id="414" name="Multiply_7905/fq_weights_1/mulpiply_by_scale" type="Multiply" version="opset1">
			<data auto_broadcast="numpy"/>
			<input>
				<port id="0">
					<dim>512</dim>
					<dim>512</dim>
					<dim>3</dim>
					<dim>3</dim>
				</port>
				<port id="1">
					<dim>512</dim>
					<dim>1</dim>
					<dim>1</dim>
					<dim>1</dim>
				</port>
			</input>
			<output>
				<port id="2" precision="FP32">
					<dim>512</dim>
					<dim>512</dim>
					<dim>3</dim>
					<dim>3</dim>
				</port>
			</output>
		</layer>
		<layer id="415" name="Multiply_7905" type="Convolution" version="opset1">
			<data auto_pad="explicit" strides="1,1" dilations="1,1" pads_begin="1,1" pads_end="1,1"/>
			<input>
				<port id="0">
					<dim>1</dim>
					<dim>512</dim>
					<dim>6</dim>
					<dim>125</dim>
				</port>
				<port id="1">
					<dim>512</dim>
					<dim>512</dim>
					<dim>3</dim>
					<dim>3</dim>
				</port>
			</input>
			<output>
				<port id="2" precision="FP32">
					<dim>1</dim>
					<dim>512</dim>
					<dim>6</dim>
					<dim>125</dim>
				</port>
			</output>
		</layer>
		<layer id="416" name="Constant_79104216054" type="Const" version="opset1">
			<data offset="12787206" size="1024" shape="1,512,1,1" element_type="f16"/>
			<output>
				<port id="0" precision="FP16">
					<dim>1</dim>
					<dim>512</dim>
					<dim>1</dim>
					<dim>1</dim>
				</port>
			</output>
		</layer>
		<layer id="417" name="Constant_79104213459/restored_convert" type="Convert" version="opset1">
			<data destination_type="f32"/>
			<rt_info>
				<attribute name="decompression" version="0"/>
			</rt_info>
			<input>
				<port id="0">
					<dim>1</dim>
					<dim>512</dim>
					<dim>1</dim>
					<dim>1</dim>
				</port>
			</input>
			<output>
				<port id="1" precision="FP32">
					<dim>1</dim>
					<dim>512</dim>
					<dim>1</dim>
					<dim>1</dim>
				</port>
			</output>
		</layer>
		<layer id="418" name="BatchNormalization_116" type="Add" version="opset1">
			<data auto_broadcast="numpy"/>
			<input>
				<port id="0">
					<dim>1</dim>
					<dim>512</dim>
					<dim>6</dim>
					<dim>125</dim>
				</port>
				<port id="1">
					<dim>1</dim>
					<dim>512</dim>
					<dim>1</dim>
					<dim>1</dim>
				</port>
			</input>
			<output>
				<port id="2" precision="FP32" names="261">
					<dim>1</dim>
					<dim>512</dim>
					<dim>6</dim>
					<dim>125</dim>
				</port>
			</output>
		</layer>
		<layer id="419" name="GlobalAveragePool_123/fq_input_0" type="FakeQuantize" version="opset1">
			<data levels="256" auto_broadcast="numpy"/>
			<input>
				<port id="0">
					<dim>1</dim>
					<dim>512</dim>
					<dim>6</dim>
					<dim>125</dim>
				</port>
				<port id="1"/>
				<port id="2"/>
				<port id="3"/>
				<port id="4"/>
			</input>
			<output>
				<port id="5" precision="FP32">
					<dim>1</dim>
					<dim>512</dim>
					<dim>6</dim>
					<dim>125</dim>
				</port>
			</output>
		</layer>
		<layer id="420" name="Range_1254423" type="Const" version="opset1">
			<data offset="260994" size="16" shape="2" element_type="i64"/>
			<output>
				<port id="0" precision="I64">
					<dim>2</dim>
				</port>
			</output>
		</layer>
		<layer id="421" name="GlobalAveragePool_123" type="ReduceMean" version="opset1">
			<data keep_dims="true"/>
			<input>
				<port id="0">
					<dim>1</dim>
					<dim>512</dim>
					<dim>6</dim>
					<dim>125</dim>
				</port>
				<port id="1">
					<dim>2</dim>
				</port>
			</input>
			<output>
				<port id="2" precision="FP32" names="268">
					<dim>1</dim>
					<dim>512</dim>
					<dim>1</dim>
					<dim>1</dim>
				</port>
			</output>
		</layer>
		<layer id="422" name="Reshape_127/fq_input_0" type="FakeQuantize" version="opset1">
			<data levels="256" auto_broadcast="numpy"/>
			<input>
				<port id="0">
					<dim>1</dim>
					<dim>512</dim>
					<dim>1</dim>
					<dim>1</dim>
				</port>
				<port id="1"/>
				<port id="2"/>
				<port id="3"/>
				<port id="4"/>
			</input>
			<output>
				<port id="5" precision="FP32">
					<dim>1</dim>
					<dim>512</dim>
					<dim>1</dim>
					<dim>1</dim>
				</port>
			</output>
		</layer>
		<layer id="423" name="Shape_117" type="ShapeOf" version="opset3">
			<data output_type="i64"/>
			<input>
				<port id="0">
					<dim>1</dim>
					<dim>512</dim>
					<dim>6</dim>
					<dim>125</dim>
				</port>
			</input>
			<output>
				<port id="1" precision="I64" names="262,265,287">
					<dim>4</dim>
				</port>
			</output>
		</layer>
		<layer id="424" name="Constant_5129426" type="Const" version="opset1">
			<data offset="261010" size="8" shape="2" element_type="i32"/>
			<output>
				<port id="0" precision="I32">
					<dim>2</dim>
				</port>
			</output>
		</layer>
		<layer id="425" name="Constant_5130427" type="Const" version="opset1">
			<data offset="261018" size="8" shape="" element_type="i64"/>
			<output>
				<port id="0" precision="I64"/>
			</output>
		</layer>
		<layer id="426" name="Gather_5131" type="Gather" version="opset8">
			<data batch_dims="0"/>
			<input>
				<port id="0">
					<dim>4</dim>
				</port>
				<port id="1">
					<dim>2</dim>
				</port>
				<port id="2"/>
			</input>
			<output>
				<port id="3" precision="I64" names="271">
					<dim>2</dim>
				</port>
			</output>
		</layer>
		<layer id="427" name="Reshape_127" type="Reshape" version="opset1">
			<data special_zero="true"/>
			<input>
				<port id="0">
					<dim>1</dim>
					<dim>512</dim>
					<dim>1</dim>
					<dim>1</dim>
				</port>
				<port id="1">
					<dim>2</dim>
				</port>
			</input>
			<output>
				<port id="2" precision="FP32" names="272">
					<dim>1</dim>
					<dim>512</dim>
				</port>
			</output>
		</layer>
		<layer id="428" name="MatMul_128/fq_weights_1/scale38676144" type="Const" version="opset1">
			<data offset="12788230" size="256" shape="64,1" element_type="f32"/>
			<output>
				<port id="0" precision="FP32">
					<dim>64</dim>
					<dim>1</dim>
				</port>
			</output>
		</layer>
		<layer id="429" name="Constant_55834313463/restored_convert/quantized38596036" type="Const" version="opset1">
			<data offset="12788486" size="32768" shape="64,512" element_type="i8"/>
			<output>
				<port id="0" precision="I8">
					<dim>64</dim>
					<dim>512</dim>
				</port>
			</output>
		</layer>
		<layer id="430" name="Constant_55834313463/restored_convert/quantized/to_f32" type="Convert" version="opset1">
			<data destination_type="f32"/>
			<input>
				<port id="0">
					<dim>64</dim>
					<dim>512</dim>
				</port>
			</input>
			<output>
				<port id="1" precision="FP32">
					<dim>64</dim>
					<dim>512</dim>
				</port>
			</output>
		</layer>
		<layer id="431" name="MatMul_128/fq_weights_1/mulpiply_by_scale" type="Multiply" version="opset1">
			<data auto_broadcast="numpy"/>
			<input>
				<port id="0">
					<dim>64</dim>
					<dim>512</dim>
				</port>
				<port id="1">
					<dim>64</dim>
					<dim>1</dim>
				</port>
			</input>
			<output>
				<port id="2" precision="FP32">
					<dim>64</dim>
					<dim>512</dim>
				</port>
			</output>
		</layer>
		<layer id="432" name="MatMul_128" type="MatMul" version="opset1">
			<data transpose_a="false" transpose_b="true"/>
			<input>
				<port id="0">
					<dim>1</dim>
					<dim>512</dim>
				</port>
				<port id="1">
					<dim>64</dim>
					<dim>512</dim>
				</port>
			</input>
			<output>
				<port id="2" precision="FP32" names="274">
					<dim>1</dim>
					<dim>64</dim>
				</port>
			</output>
		</layer>
		<layer id="433" name="Relu_129" type="ReLU" version="opset1">
			<input>
				<port id="0">
					<dim>1</dim>
					<dim>64</dim>
				</port>
			</input>
			<output>
				<port id="1" precision="FP32" names="275">
					<dim>1</dim>
					<dim>64</dim>
				</port>
			</output>
		</layer>
		<layer id="434" name="MatMul_130/fq_input_0" type="FakeQuantize" version="opset1">
			<data levels="256" auto_broadcast="numpy"/>
			<input>
				<port id="0">
					<dim>1</dim>
					<dim>64</dim>
				</port>
				<port id="1"/>
				<port id="2"/>
				<port id="3"/>
				<port id="4"/>
			</input>
			<output>
				<port id="5" precision="FP32">
					<dim>1</dim>
					<dim>64</dim>
				</port>
			</output>
		</layer>
		<layer id="435" name="MatMul_130/fq_weights_1/scale40776609" type="Const" version="opset1">
			<data offset="12821254" size="2048" shape="512,1" element_type="f32"/>
			<output>
				<port id="0" precision="FP32">
					<dim>512</dim>
					<dim>1</dim>
				</port>
			</output>
		</layer>
		<layer id="436" name="Constant_55904353464/restored_convert/quantized40696120" type="Const" version="opset1">
			<data offset="12823302" size="32768" shape="512,64" element_type="i8"/>
			<output>
				<port id="0" precision="I8">
					<dim>512</dim>
					<dim>64</dim>
				</port>
			</output>
		</layer>
		<layer id="437" name="Constant_55904353464/restored_convert/quantized/to_f32" type="Convert" version="opset1">
			<data destination_type="f32"/>
			<input>
				<port id="0">
					<dim>512</dim>
					<dim>64</dim>
				</port>
			</input>
			<output>
				<port id="1" precision="FP32">
					<dim>512</dim>
					<dim>64</dim>
				</port>
			</output>
		</layer>
		<layer id="438" name="MatMul_130/fq_weights_1/mulpiply_by_scale" type="Multiply" version="opset1">
			<data auto_broadcast="numpy"/>
			<input>
				<port id="0">
					<dim>512</dim>
					<dim>64</dim>
				</port>
				<port id="1">
					<dim>512</dim>
					<dim>1</dim>
				</port>
			</input>
			<output>
				<port id="2" precision="FP32">
					<dim>512</dim>
					<dim>64</dim>
				</port>
			</output>
		</layer>
		<layer id="439" name="MatMul_130" type="MatMul" version="opset1">
			<data transpose_a="false" transpose_b="true"/>
			<input>
				<port id="0">
					<dim>1</dim>
					<dim>64</dim>
				</port>
				<port id="1">
					<dim>512</dim>
					<dim>64</dim>
				</port>
			</input>
			<output>
				<port id="2" precision="FP32" names="277">
					<dim>1</dim>
					<dim>512</dim>
				</port>
			</output>
		</layer>
		<layer id="440" name="Sigmoid_131" type="Sigmoid" version="opset1">
			<input>
				<port id="0">
					<dim>1</dim>
					<dim>512</dim>
				</port>
			</input>
			<output>
				<port id="1" precision="FP32" names="278">
					<dim>1</dim>
					<dim>512</dim>
				</port>
			</output>
		</layer>
		<layer id="441" name="Reshape_135/fq_input_0" type="FakeQuantize" version="opset1">
			<data levels="256" auto_broadcast="numpy"/>
			<input>
				<port id="0">
					<dim>1</dim>
					<dim>512</dim>
				</port>
				<port id="1"/>
				<port id="2"/>
				<port id="3"/>
				<port id="4"/>
			</input>
			<output>
				<port id="5" precision="FP32">
					<dim>1</dim>
					<dim>512</dim>
				</port>
			</output>
		</layer>
		<layer id="442" name="Constant_5133438" type="Const" version="opset1">
			<data offset="261010" size="8" shape="2" element_type="i32"/>
			<output>
				<port id="0" precision="I32">
					<dim>2</dim>
				</port>
			</output>
		</layer>
		<layer id="443" name="Constant_5134439" type="Const" version="opset1">
			<data offset="261018" size="8" shape="" element_type="i64"/>
			<output>
				<port id="0" precision="I64"/>
			</output>
		</layer>
		<layer id="444" name="Gather_5135" type="Gather" version="opset8">
			<data batch_dims="0"/>
			<input>
				<port id="0">
					<dim>4</dim>
				</port>
				<port id="1">
					<dim>2</dim>
				</port>
				<port id="2"/>
			</input>
			<output>
				<port id="3" precision="I64">
					<dim>2</dim>
				</port>
			</output>
		</layer>
		<layer id="445" name="3174416048" type="Const" version="opset1">
			<data offset="265698" size="8" shape="1" element_type="i64"/>
			<output>
				<port id="0" precision="I64" names="317">
					<dim>1</dim>
				</port>
			</output>
		</layer>
		<layer id="446" name="3184426171" type="Const" version="opset1">
			<data offset="265698" size="8" shape="1" element_type="i64"/>
			<output>
				<port id="0" precision="I64" names="318">
					<dim>1</dim>
				</port>
			</output>
		</layer>
		<layer id="447" name="Concat_134" type="Concat" version="opset1">
			<data axis="0"/>
			<input>
				<port id="0">
					<dim>2</dim>
				</port>
				<port id="1">
					<dim>1</dim>
				</port>
				<port id="2">
					<dim>1</dim>
				</port>
			</input>
			<output>
				<port id="3" precision="I64" names="285">
					<dim>4</dim>
				</port>
			</output>
		</layer>
		<layer id="448" name="Reshape_135" type="Reshape" version="opset1">
			<data special_zero="true"/>
			<input>
				<port id="0">
					<dim>1</dim>
					<dim>512</dim>
				</port>
				<port id="1">
					<dim>4</dim>
				</port>
			</input>
			<output>
				<port id="2" precision="FP32" names="286,288">
					<dim>1</dim>
					<dim>512</dim>
					<dim>1</dim>
					<dim>1</dim>
				</port>
			</output>
		</layer>
		<layer id="449" name="Mul_138" type="Multiply" version="opset1">
			<data auto_broadcast="numpy"/>
			<input>
				<port id="0">
					<dim>1</dim>
					<dim>512</dim>
					<dim>6</dim>
					<dim>125</dim>
				</port>
				<port id="1">
					<dim>1</dim>
					<dim>512</dim>
					<dim>1</dim>
					<dim>1</dim>
				</port>
			</input>
			<output>
				<port id="2" precision="FP32" names="289">
					<dim>1</dim>
					<dim>512</dim>
					<dim>6</dim>
					<dim>125</dim>
				</port>
			</output>
		</layer>
		<layer id="450" name="Add_139/fq_input_0" type="FakeQuantize" version="opset1">
			<data levels="256" auto_broadcast="numpy"/>
			<input>
				<port id="0">
					<dim>1</dim>
					<dim>512</dim>
					<dim>6</dim>
					<dim>125</dim>
				</port>
				<port id="1"/>
				<port id="2"/>
				<port id="3"/>
				<port id="4"/>
			</input>
			<output>
				<port id="5" precision="FP32">
					<dim>1</dim>
					<dim>512</dim>
					<dim>6</dim>
					<dim>125</dim>
				</port>
			</output>
		</layer>
		<layer id="451" name="Add_139" type="Add" version="opset1">
			<data auto_broadcast="numpy"/>
			<input>
				<port id="0">
					<dim>1</dim>
					<dim>512</dim>
					<dim>6</dim>
					<dim>125</dim>
				</port>
				<port id="1">
					<dim>1</dim>
					<dim>512</dim>
					<dim>6</dim>
					<dim>125</dim>
				</port>
			</input>
			<output>
				<port id="2" precision="FP32" names="290">
					<dim>1</dim>
					<dim>512</dim>
					<dim>6</dim>
					<dim>125</dim>
				</port>
			</output>
		</layer>
		<layer id="452" name="Relu_140" type="ReLU" version="opset1">
			<input>
				<port id="0">
					<dim>1</dim>
					<dim>512</dim>
					<dim>6</dim>
					<dim>125</dim>
				</port>
			</input>
			<output>
				<port id="1" precision="FP32" names="291">
					<dim>1</dim>
					<dim>512</dim>
					<dim>6</dim>
					<dim>125</dim>
				</port>
			</output>
		</layer>
		<layer id="453" name="Multiply_7915/fq_input_0" type="FakeQuantize" version="opset1">
			<data levels="256" auto_broadcast="numpy"/>
			<input>
				<port id="0">
					<dim>1</dim>
					<dim>512</dim>
					<dim>6</dim>
					<dim>125</dim>
				</port>
				<port id="1"/>
				<port id="2"/>
				<port id="3"/>
				<port id="4"/>
			</input>
			<output>
				<port id="5" precision="FP32">
					<dim>1</dim>
					<dim>512</dim>
					<dim>6</dim>
					<dim>125</dim>
				</port>
			</output>
		</layer>
		<layer id="454" name="Multiply_7915/fq_weights_1/scale38375988" type="Const" version="opset1">
			<data offset="12856070" size="2048" shape="512,1,1,1" element_type="f32"/>
			<output>
				<port id="0" precision="FP32">
					<dim>512</dim>
					<dim>1</dim>
					<dim>1</dim>
					<dim>1</dim>
				</port>
			</output>
		</layer>
		<layer id="455" name="Multiply_80794493469/restored_convert/quantized38296573" type="Const" version="opset1">
			<data offset="12858118" size="2359296" shape="512,512,3,3" element_type="i8"/>
			<output>
				<port id="0" precision="I8">
					<dim>512</dim>
					<dim>512</dim>
					<dim>3</dim>
					<dim>3</dim>
				</port>
			</output>
		</layer>
		<layer id="456" name="Multiply_80794493469/restored_convert/quantized/to_f32" type="Convert" version="opset1">
			<data destination_type="f32"/>
			<input>
				<port id="0">
					<dim>512</dim>
					<dim>512</dim>
					<dim>3</dim>
					<dim>3</dim>
				</port>
			</input>
			<output>
				<port id="1" precision="FP32">
					<dim>512</dim>
					<dim>512</dim>
					<dim>3</dim>
					<dim>3</dim>
				</port>
			</output>
		</layer>
		<layer id="457" name="Multiply_7915/fq_weights_1/mulpiply_by_scale" type="Multiply" version="opset1">
			<data auto_broadcast="numpy"/>
			<input>
				<port id="0">
					<dim>512</dim>
					<dim>512</dim>
					<dim>3</dim>
					<dim>3</dim>
				</port>
				<port id="1">
					<dim>512</dim>
					<dim>1</dim>
					<dim>1</dim>
					<dim>1</dim>
				</port>
			</input>
			<output>
				<port id="2" precision="FP32">
					<dim>512</dim>
					<dim>512</dim>
					<dim>3</dim>
					<dim>3</dim>
				</port>
			</output>
		</layer>
		<layer id="458" name="Multiply_7915" type="Convolution" version="opset1">
			<data auto_pad="explicit" strides="1,1" dilations="1,1" pads_begin="1,1" pads_end="1,1"/>
			<input>
				<port id="0">
					<dim>1</dim>
					<dim>512</dim>
					<dim>6</dim>
					<dim>125</dim>
				</port>
				<port id="1">
					<dim>512</dim>
					<dim>512</dim>
					<dim>3</dim>
					<dim>3</dim>
				</port>
			</input>
			<output>
				<port id="2" precision="FP32">
					<dim>1</dim>
					<dim>512</dim>
					<dim>6</dim>
					<dim>125</dim>
				</port>
			</output>
		</layer>
		<layer id="459" name="Constant_79204525955" type="Const" version="opset1">
			<data offset="15217414" size="1024" shape="1,512,1,1" element_type="f16"/>
			<output>
				<port id="0" precision="FP16">
					<dim>1</dim>
					<dim>512</dim>
					<dim>1</dim>
					<dim>1</dim>
				</port>
			</output>
		</layer>
		<layer id="460" name="Constant_79204523470/restored_convert" type="Convert" version="opset1">
			<data destination_type="f32"/>
			<rt_info>
				<attribute name="decompression" version="0"/>
			</rt_info>
			<input>
				<port id="0">
					<dim>1</dim>
					<dim>512</dim>
					<dim>1</dim>
					<dim>1</dim>
				</port>
			</input>
			<output>
				<port id="1" precision="FP32">
					<dim>1</dim>
					<dim>512</dim>
					<dim>1</dim>
					<dim>1</dim>
				</port>
			</output>
		</layer>
		<layer id="461" name="BatchNormalization_142" type="Add" version="opset1">
			<data auto_broadcast="numpy"/>
			<input>
				<port id="0">
					<dim>1</dim>
					<dim>512</dim>
					<dim>6</dim>
					<dim>125</dim>
				</port>
				<port id="1">
					<dim>1</dim>
					<dim>512</dim>
					<dim>1</dim>
					<dim>1</dim>
				</port>
			</input>
			<output>
				<port id="2" precision="FP32" names="293">
					<dim>1</dim>
					<dim>512</dim>
					<dim>6</dim>
					<dim>125</dim>
				</port>
			</output>
		</layer>
		<layer id="462" name="Relu_143" type="ReLU" version="opset1">
			<input>
				<port id="0">
					<dim>1</dim>
					<dim>512</dim>
					<dim>6</dim>
					<dim>125</dim>
				</port>
			</input>
			<output>
				<port id="1" precision="FP32" names="294">
					<dim>1</dim>
					<dim>512</dim>
					<dim>6</dim>
					<dim>125</dim>
				</port>
			</output>
		</layer>
		<layer id="463" name="MaxPool_144/fq_input_0" type="FakeQuantize" version="opset1">
			<data levels="256" auto_broadcast="numpy"/>
			<input>
				<port id="0">
					<dim>1</dim>
					<dim>512</dim>
					<dim>6</dim>
					<dim>125</dim>
				</port>
				<port id="1"/>
				<port id="2"/>
				<port id="3"/>
				<port id="4"/>
			</input>
			<output>
				<port id="5" precision="FP32">
					<dim>1</dim>
					<dim>512</dim>
					<dim>6</dim>
					<dim>125</dim>
				</port>
			</output>
		</layer>
		<layer id="464" name="MaxPool_144" type="MaxPool" version="opset8">
			<data strides="2,2" kernel="2,2" pads_begin="0,0" pads_end="0,0" rounding_type="floor" auto_pad="explicit" dilations="1,1" axis="0" index_element_type="i64"/>
			<input>
				<port id="0">
					<dim>1</dim>
					<dim>512</dim>
					<dim>6</dim>
					<dim>125</dim>
				</port>
			</input>
			<output>
				<port id="1" precision="FP32" names="295">
					<dim>1</dim>
					<dim>512</dim>
					<dim>3</dim>
					<dim>62</dim>
				</port>
				<port id="2" precision="FP32">
					<dim>1</dim>
					<dim>512</dim>
					<dim>3</dim>
					<dim>62</dim>
					<rt_info/>
				</port>
			</output>
		</layer>
		<layer id="466" name="Constant_1454566582" type="Const" version="opset1">
			<data offset="15218438" size="24" shape="3" element_type="i64"/>
			<output>
				<port id="0" precision="I64" names="296">
					<dim>3</dim>
				</port>
			</output>
		</layer>
		<layer id="467" name="Reshape_146" type="Reshape" version="opset1">
			<data special_zero="true"/>
			<input>
				<port id="0">
					<dim>1</dim>
					<dim>512</dim>
					<dim>3</dim>
					<dim>62</dim>
				</port>
				<port id="1">
					<dim>3</dim>
				</port>
			</input>
			<output>
				<port id="2" precision="FP32" names="297">
					<dim>1</dim>
					<dim>512</dim>
					<dim>186</dim>
				</port>
			</output>
		</layer>
		<layer id="468" name="Constant_1451458" type="Const" version="opset1">
			<data offset="15218462" size="24" shape="3" element_type="i64"/>
			<output>
				<port id="0" precision="I64">
					<dim>3</dim>
				</port>
			</output>
		</layer>
		<layer id="469" name="Transpose_147" type="Transpose" version="opset1">
			<input>
				<port id="0">
					<dim>1</dim>
					<dim>512</dim>
					<dim>186</dim>
				</port>
				<port id="1">
					<dim>3</dim>
				</port>
			</input>
			<output>
				<port id="2" precision="FP32" names="298">
					<dim>1</dim>
					<dim>186</dim>
					<dim>512</dim>
				</port>
			</output>
		</layer>
		<layer id="470" name="MatMul_148/fq_weights_1/scale39576603" type="Const" version="opset1">
			<data offset="15218486" size="16236" shape="4059,1" element_type="f32"/>
			<output>
				<port id="0" precision="FP32">
					<dim>4059</dim>
					<dim>1</dim>
				</port>
			</output>
		</layer>
		<layer id="471" name="Constant_55974613473/restored_convert/quantized39496657" type="Const" version="opset1">
			<data offset="15234722" size="2078208" shape="4059,512" element_type="i8"/>
			<output>
				<port id="0" precision="I8">
					<dim>4059</dim>
					<dim>512</dim>
				</port>
			</output>
		</layer>
		<layer id="472" name="Constant_55974613473/restored_convert/quantized/to_f32" type="Convert" version="opset1">
			<data destination_type="f32"/>
			<input>
				<port id="0">
					<dim>4059</dim>
					<dim>512</dim>
				</port>
			</input>
			<output>
				<port id="1" precision="FP32">
					<dim>4059</dim>
					<dim>512</dim>
				</port>
			</output>
		</layer>
		<layer id="473" name="MatMul_148/fq_weights_1/mulpiply_by_scale" type="Multiply" version="opset1">
			<data auto_broadcast="numpy"/>
			<input>
				<port id="0">
					<dim>4059</dim>
					<dim>512</dim>
				</port>
				<port id="1">
					<dim>4059</dim>
					<dim>1</dim>
				</port>
			</input>
			<output>
				<port id="2" precision="FP32">
					<dim>4059</dim>
					<dim>512</dim>
				</port>
			</output>
		</layer>
		<layer id="474" name="MatMul_148" type="MatMul" version="opset1">
			<data transpose_a="false" transpose_b="true"/>
			<input>
				<port id="0">
					<dim>1</dim>
					<dim>186</dim>
					<dim>512</dim>
				</port>
				<port id="1">
					<dim>4059</dim>
					<dim>512</dim>
				</port>
			</input>
			<output>
				<port id="2" precision="FP32" names="300">
					<dim>1</dim>
					<dim>186</dim>
					<dim>4059</dim>
				</port>
			</output>
		</layer>
		<layer id="475" name="Constant_82474646099" type="Const" version="opset1">
			<data offset="17312930" size="8118" shape="1,1,4059" element_type="f16"/>
			<output>
				<port id="0" precision="FP16">
					<dim>1</dim>
					<dim>1</dim>
					<dim>4059</dim>
				</port>
			</output>
		</layer>
		<layer id="476" name="Constant_82474643474/restored_convert" type="Convert" version="opset1">
			<data destination_type="f32"/>
			<rt_info>
				<attribute name="decompression" version="0"/>
			</rt_info>
			<input>
				<port id="0">
					<dim>1</dim>
					<dim>1</dim>
					<dim>4059</dim>
				</port>
			</input>
			<output>
				<port id="1" precision="FP32">
					<dim>1</dim>
					<dim>1</dim>
					<dim>4059</dim>
				</port>
			</output>
		</layer>
		<layer id="477" name="Add_149" type="Add" version="opset1">
			<data auto_broadcast="numpy"/>
			<input>
				<port id="0">
					<dim>1</dim>
					<dim>186</dim>
					<dim>4059</dim>
				</port>
				<port id="1">
					<dim>1</dim>
					<dim>1</dim>
					<dim>4059</dim>
				</port>
			</input>
			<output>
				<port id="2" precision="FP32" names="301">
					<dim>1</dim>
					<dim>186</dim>
					<dim>4059</dim>
				</port>
			</output>
		</layer>
		<layer id="478" name="Constant_55994666591" type="Const" version="opset1">
			<data offset="17321048" size="24" shape="3" element_type="i64"/>
			<output>
				<port id="0" precision="I64">
					<dim>3</dim>
				</port>
			</output>
		</layer>
		<layer id="479" name="output" type="Reshape" version="opset1">
			<data special_zero="true"/>
			<input>
				<port id="0">
					<dim>1</dim>
					<dim>186</dim>
					<dim>4059</dim>
				</port>
				<port id="1">
					<dim>3</dim>
				</port>
			</input>
			<output>
				<port id="2" precision="FP32" names="output">
					<dim>186</dim>
					<dim>1</dim>
					<dim>4059</dim>
				</port>
			</output>
		</layer>
		<layer id="480" name="output/sink_port_0" type="Result" version="opset1">
			<input>
				<port id="0">
					<dim>186</dim>
					<dim>1</dim>
					<dim>4059</dim>
				</port>
			</input>
		</layer>
	</layers>
	<edges>
		<edge from-layer="13" from-port="0" to-layer="14" to-port="0"/>
		<edge from-layer="12" from-port="0" to-layer="15" to-port="0"/>
		<edge from-layer="14" from-port="1" to-layer="15" to-port="1"/>
		<edge from-layer="15" from-port="2" to-layer="16" to-port="0"/>
		<edge from-layer="8" from-port="0" to-layer="16" to-port="1"/>
		<edge from-layer="9" from-port="0" to-layer="16" to-port="2"/>
		<edge from-layer="10" from-port="0" to-layer="16" to-port="3"/>
		<edge from-layer="11" from-port="0" to-layer="16" to-port="4"/>
		<edge from-layer="18" from-port="0" to-layer="19" to-port="0"/>
		<edge from-layer="19" from-port="1" to-layer="20" to-port="0"/>
		<edge from-layer="17" from-port="0" to-layer="20" to-port="1"/>
		<edge from-layer="16" from-port="5" to-layer="21" to-port="0"/>
		<edge from-layer="20" from-port="2" to-layer="21" to-port="1"/>
		<edge from-layer="22" from-port="0" to-layer="23" to-port="0"/>
		<edge from-layer="21" from-port="2" to-layer="24" to-port="0"/>
		<edge from-layer="23" from-port="1" to-layer="24" to-port="1"/>
		<edge from-layer="24" from-port="2" to-layer="25" to-port="0"/>
		<edge from-layer="25" from-port="1" to-layer="26" to-port="0"/>
		<edge from-layer="4" from-port="0" to-layer="26" to-port="1"/>
		<edge from-layer="5" from-port="0" to-layer="26" to-port="2"/>
		<edge from-layer="6" from-port="0" to-layer="26" to-port="3"/>
		<edge from-layer="7" from-port="0" to-layer="26" to-port="4"/>
		<edge from-layer="28" from-port="0" to-layer="29" to-port="0"/>
		<edge from-layer="29" from-port="1" to-layer="30" to-port="0"/>
		<edge from-layer="27" from-port="0" to-layer="30" to-port="1"/>
		<edge from-layer="26" from-port="5" to-layer="31" to-port="0"/>
		<edge from-layer="30" from-port="2" to-layer="31" to-port="1"/>
		<edge from-layer="32" from-port="0" to-layer="33" to-port="0"/>
		<edge from-layer="31" from-port="2" to-layer="34" to-port="0"/>
		<edge from-layer="33" from-port="1" to-layer="34" to-port="1"/>
		<edge from-layer="34" from-port="2" to-layer="35" to-port="0"/>
		<edge from-layer="35" from-port="1" to-layer="36" to-port="0"/>
		<edge from-layer="0" from-port="0" to-layer="36" to-port="1"/>
		<edge from-layer="1" from-port="0" to-layer="36" to-port="2"/>
		<edge from-layer="2" from-port="0" to-layer="36" to-port="3"/>
		<edge from-layer="3" from-port="0" to-layer="36" to-port="4"/>
		<edge from-layer="36" from-port="5" to-layer="37" to-port="0"/>
		<edge from-layer="72" from-port="0" to-layer="73" to-port="0"/>
		<edge from-layer="73" from-port="1" to-layer="74" to-port="0"/>
		<edge from-layer="71" from-port="0" to-layer="74" to-port="1"/>
		<edge from-layer="37" from-port="1" to-layer="75" to-port="0"/>
		<edge from-layer="74" from-port="2" to-layer="75" to-port="1"/>
		<edge from-layer="76" from-port="0" to-layer="77" to-port="0"/>
		<edge from-layer="75" from-port="2" to-layer="78" to-port="0"/>
		<edge from-layer="77" from-port="1" to-layer="78" to-port="1"/>
		<edge from-layer="78" from-port="2" to-layer="79" to-port="0"/>
		<edge from-layer="79" from-port="1" to-layer="80" to-port="0"/>
		<edge from-layer="67" from-port="0" to-layer="80" to-port="1"/>
		<edge from-layer="68" from-port="0" to-layer="80" to-port="2"/>
		<edge from-layer="69" from-port="0" to-layer="80" to-port="3"/>
		<edge from-layer="70" from-port="0" to-layer="80" to-port="4"/>
		<edge from-layer="82" from-port="0" to-layer="83" to-port="0"/>
		<edge from-layer="83" from-port="1" to-layer="84" to-port="0"/>
		<edge from-layer="81" from-port="0" to-layer="84" to-port="1"/>
		<edge from-layer="80" from-port="5" to-layer="85" to-port="0"/>
		<edge from-layer="84" from-port="2" to-layer="85" to-port="1"/>
		<edge from-layer="86" from-port="0" to-layer="87" to-port="0"/>
		<edge from-layer="85" from-port="2" to-layer="88" to-port="0"/>
		<edge from-layer="87" from-port="1" to-layer="88" to-port="1"/>
		<edge from-layer="88" from-port="2" to-layer="89" to-port="0"/>
		<edge from-layer="63" from-port="0" to-layer="89" to-port="1"/>
		<edge from-layer="64" from-port="0" to-layer="89" to-port="2"/>
		<edge from-layer="65" from-port="0" to-layer="89" to-port="3"/>
		<edge from-layer="66" from-port="0" to-layer="89" to-port="4"/>
		<edge from-layer="89" from-port="5" to-layer="91" to-port="0"/>
		<edge from-layer="90" from-port="0" to-layer="91" to-port="1"/>
		<edge from-layer="91" from-port="2" to-layer="92" to-port="0"/>
		<edge from-layer="59" from-port="0" to-layer="92" to-port="1"/>
		<edge from-layer="60" from-port="0" to-layer="92" to-port="2"/>
		<edge from-layer="61" from-port="0" to-layer="92" to-port="3"/>
		<edge from-layer="62" from-port="0" to-layer="92" to-port="4"/>
		<edge from-layer="88" from-port="2" to-layer="93" to-port="0"/>
		<edge from-layer="93" from-port="1" to-layer="96" to-port="0"/>
		<edge from-layer="94" from-port="0" to-layer="96" to-port="1"/>
		<edge from-layer="95" from-port="0" to-layer="96" to-port="2"/>
		<edge from-layer="92" from-port="5" to-layer="97" to-port="0"/>
		<edge from-layer="96" from-port="3" to-layer="97" to-port="1"/>
		<edge from-layer="99" from-port="0" to-layer="100" to-port="0"/>
		<edge from-layer="100" from-port="1" to-layer="101" to-port="0"/>
		<edge from-layer="98" from-port="0" to-layer="101" to-port="1"/>
		<edge from-layer="97" from-port="2" to-layer="102" to-port="0"/>
		<edge from-layer="101" from-port="2" to-layer="102" to-port="1"/>
		<edge from-layer="102" from-port="2" to-layer="103" to-port="0"/>
		<edge from-layer="103" from-port="1" to-layer="104" to-port="0"/>
		<edge from-layer="55" from-port="0" to-layer="104" to-port="1"/>
		<edge from-layer="56" from-port="0" to-layer="104" to-port="2"/>
		<edge from-layer="57" from-port="0" to-layer="104" to-port="3"/>
		<edge from-layer="58" from-port="0" to-layer="104" to-port="4"/>
		<edge from-layer="106" from-port="0" to-layer="107" to-port="0"/>
		<edge from-layer="107" from-port="1" to-layer="108" to-port="0"/>
		<edge from-layer="105" from-port="0" to-layer="108" to-port="1"/>
		<edge from-layer="104" from-port="5" to-layer="109" to-port="0"/>
		<edge from-layer="108" from-port="2" to-layer="109" to-port="1"/>
		<edge from-layer="109" from-port="2" to-layer="110" to-port="0"/>
		<edge from-layer="110" from-port="1" to-layer="111" to-port="0"/>
		<edge from-layer="51" from-port="0" to-layer="111" to-port="1"/>
		<edge from-layer="52" from-port="0" to-layer="111" to-port="2"/>
		<edge from-layer="53" from-port="0" to-layer="111" to-port="3"/>
		<edge from-layer="54" from-port="0" to-layer="111" to-port="4"/>
		<edge from-layer="93" from-port="1" to-layer="114" to-port="0"/>
		<edge from-layer="112" from-port="0" to-layer="114" to-port="1"/>
		<edge from-layer="113" from-port="0" to-layer="114" to-port="2"/>
		<edge from-layer="114" from-port="3" to-layer="117" to-port="0"/>
		<edge from-layer="115" from-port="0" to-layer="117" to-port="1"/>
		<edge from-layer="116" from-port="0" to-layer="117" to-port="2"/>
		<edge from-layer="111" from-port="5" to-layer="118" to-port="0"/>
		<edge from-layer="117" from-port="3" to-layer="118" to-port="1"/>
		<edge from-layer="89" from-port="5" to-layer="119" to-port="0"/>
		<edge from-layer="118" from-port="2" to-layer="119" to-port="1"/>
		<edge from-layer="119" from-port="2" to-layer="120" to-port="0"/>
		<edge from-layer="47" from-port="0" to-layer="120" to-port="1"/>
		<edge from-layer="48" from-port="0" to-layer="120" to-port="2"/>
		<edge from-layer="49" from-port="0" to-layer="120" to-port="3"/>
		<edge from-layer="50" from-port="0" to-layer="120" to-port="4"/>
		<edge from-layer="126" from-port="0" to-layer="127" to-port="0"/>
		<edge from-layer="127" from-port="1" to-layer="128" to-port="0"/>
		<edge from-layer="125" from-port="0" to-layer="128" to-port="1"/>
		<edge from-layer="37" from-port="1" to-layer="129" to-port="0"/>
		<edge from-layer="128" from-port="2" to-layer="129" to-port="1"/>
		<edge from-layer="130" from-port="0" to-layer="131" to-port="0"/>
		<edge from-layer="129" from-port="2" to-layer="132" to-port="0"/>
		<edge from-layer="131" from-port="1" to-layer="132" to-port="1"/>
		<edge from-layer="132" from-port="2" to-layer="133" to-port="0"/>
		<edge from-layer="121" from-port="0" to-layer="133" to-port="1"/>
		<edge from-layer="122" from-port="0" to-layer="133" to-port="2"/>
		<edge from-layer="123" from-port="0" to-layer="133" to-port="3"/>
		<edge from-layer="124" from-port="0" to-layer="133" to-port="4"/>
		<edge from-layer="120" from-port="5" to-layer="134" to-port="0"/>
		<edge from-layer="133" from-port="5" to-layer="134" to-port="1"/>
		<edge from-layer="134" from-port="2" to-layer="135" to-port="0"/>
		<edge from-layer="135" from-port="1" to-layer="136" to-port="0"/>
		<edge from-layer="43" from-port="0" to-layer="136" to-port="1"/>
		<edge from-layer="44" from-port="0" to-layer="136" to-port="2"/>
		<edge from-layer="45" from-port="0" to-layer="136" to-port="3"/>
		<edge from-layer="46" from-port="0" to-layer="136" to-port="4"/>
		<edge from-layer="138" from-port="0" to-layer="139" to-port="0"/>
		<edge from-layer="139" from-port="1" to-layer="140" to-port="0"/>
		<edge from-layer="137" from-port="0" to-layer="140" to-port="1"/>
		<edge from-layer="136" from-port="5" to-layer="141" to-port="0"/>
		<edge from-layer="140" from-port="2" to-layer="141" to-port="1"/>
		<edge from-layer="142" from-port="0" to-layer="143" to-port="0"/>
		<edge from-layer="141" from-port="2" to-layer="144" to-port="0"/>
		<edge from-layer="143" from-port="1" to-layer="144" to-port="1"/>
		<edge from-layer="144" from-port="2" to-layer="145" to-port="0"/>
		<edge from-layer="145" from-port="1" to-layer="146" to-port="0"/>
		<edge from-layer="39" from-port="0" to-layer="146" to-port="1"/>
		<edge from-layer="40" from-port="0" to-layer="146" to-port="2"/>
		<edge from-layer="41" from-port="0" to-layer="146" to-port="3"/>
		<edge from-layer="42" from-port="0" to-layer="146" to-port="4"/>
		<edge from-layer="146" from-port="5" to-layer="147" to-port="0"/>
		<edge from-layer="182" from-port="0" to-layer="183" to-port="0"/>
		<edge from-layer="183" from-port="1" to-layer="184" to-port="0"/>
		<edge from-layer="181" from-port="0" to-layer="184" to-port="1"/>
		<edge from-layer="147" from-port="1" to-layer="185" to-port="0"/>
		<edge from-layer="184" from-port="2" to-layer="185" to-port="1"/>
		<edge from-layer="186" from-port="0" to-layer="187" to-port="0"/>
		<edge from-layer="185" from-port="2" to-layer="188" to-port="0"/>
		<edge from-layer="187" from-port="1" to-layer="188" to-port="1"/>
		<edge from-layer="188" from-port="2" to-layer="189" to-port="0"/>
		<edge from-layer="189" from-port="1" to-layer="190" to-port="0"/>
		<edge from-layer="177" from-port="0" to-layer="190" to-port="1"/>
		<edge from-layer="178" from-port="0" to-layer="190" to-port="2"/>
		<edge from-layer="179" from-port="0" to-layer="190" to-port="3"/>
		<edge from-layer="180" from-port="0" to-layer="190" to-port="4"/>
		<edge from-layer="192" from-port="0" to-layer="193" to-port="0"/>
		<edge from-layer="193" from-port="1" to-layer="194" to-port="0"/>
		<edge from-layer="191" from-port="0" to-layer="194" to-port="1"/>
		<edge from-layer="190" from-port="5" to-layer="195" to-port="0"/>
		<edge from-layer="194" from-port="2" to-layer="195" to-port="1"/>
		<edge from-layer="196" from-port="0" to-layer="197" to-port="0"/>
		<edge from-layer="195" from-port="2" to-layer="198" to-port="0"/>
		<edge from-layer="197" from-port="1" to-layer="198" to-port="1"/>
		<edge from-layer="198" from-port="2" to-layer="199" to-port="0"/>
		<edge from-layer="173" from-port="0" to-layer="199" to-port="1"/>
		<edge from-layer="174" from-port="0" to-layer="199" to-port="2"/>
		<edge from-layer="175" from-port="0" to-layer="199" to-port="3"/>
		<edge from-layer="176" from-port="0" to-layer="199" to-port="4"/>
		<edge from-layer="199" from-port="5" to-layer="201" to-port="0"/>
		<edge from-layer="200" from-port="0" to-layer="201" to-port="1"/>
		<edge from-layer="201" from-port="2" to-layer="202" to-port="0"/>
		<edge from-layer="169" from-port="0" to-layer="202" to-port="1"/>
		<edge from-layer="170" from-port="0" to-layer="202" to-port="2"/>
		<edge from-layer="171" from-port="0" to-layer="202" to-port="3"/>
		<edge from-layer="172" from-port="0" to-layer="202" to-port="4"/>
		<edge from-layer="198" from-port="2" to-layer="203" to-port="0"/>
		<edge from-layer="203" from-port="1" to-layer="206" to-port="0"/>
		<edge from-layer="204" from-port="0" to-layer="206" to-port="1"/>
		<edge from-layer="205" from-port="0" to-layer="206" to-port="2"/>
		<edge from-layer="202" from-port="5" to-layer="207" to-port="0"/>
		<edge from-layer="206" from-port="3" to-layer="207" to-port="1"/>
		<edge from-layer="209" from-port="0" to-layer="210" to-port="0"/>
		<edge from-layer="210" from-port="1" to-layer="211" to-port="0"/>
		<edge from-layer="208" from-port="0" to-layer="211" to-port="1"/>
		<edge from-layer="207" from-port="2" to-layer="212" to-port="0"/>
		<edge from-layer="211" from-port="2" to-layer="212" to-port="1"/>
		<edge from-layer="212" from-port="2" to-layer="213" to-port="0"/>
		<edge from-layer="213" from-port="1" to-layer="214" to-port="0"/>
		<edge from-layer="165" from-port="0" to-layer="214" to-port="1"/>
		<edge from-layer="166" from-port="0" to-layer="214" to-port="2"/>
		<edge from-layer="167" from-port="0" to-layer="214" to-port="3"/>
		<edge from-layer="168" from-port="0" to-layer="214" to-port="4"/>
		<edge from-layer="216" from-port="0" to-layer="217" to-port="0"/>
		<edge from-layer="217" from-port="1" to-layer="218" to-port="0"/>
		<edge from-layer="215" from-port="0" to-layer="218" to-port="1"/>
		<edge from-layer="214" from-port="5" to-layer="219" to-port="0"/>
		<edge from-layer="218" from-port="2" to-layer="219" to-port="1"/>
		<edge from-layer="219" from-port="2" to-layer="220" to-port="0"/>
		<edge from-layer="220" from-port="1" to-layer="221" to-port="0"/>
		<edge from-layer="161" from-port="0" to-layer="221" to-port="1"/>
		<edge from-layer="162" from-port="0" to-layer="221" to-port="2"/>
		<edge from-layer="163" from-port="0" to-layer="221" to-port="3"/>
		<edge from-layer="164" from-port="0" to-layer="221" to-port="4"/>
		<edge from-layer="203" from-port="1" to-layer="224" to-port="0"/>
		<edge from-layer="222" from-port="0" to-layer="224" to-port="1"/>
		<edge from-layer="223" from-port="0" to-layer="224" to-port="2"/>
		<edge from-layer="224" from-port="3" to-layer="227" to-port="0"/>
		<edge from-layer="225" from-port="0" to-layer="227" to-port="1"/>
		<edge from-layer="226" from-port="0" to-layer="227" to-port="2"/>
		<edge from-layer="221" from-port="5" to-layer="228" to-port="0"/>
		<edge from-layer="227" from-port="3" to-layer="228" to-port="1"/>
		<edge from-layer="199" from-port="5" to-layer="229" to-port="0"/>
		<edge from-layer="228" from-port="2" to-layer="229" to-port="1"/>
		<edge from-layer="229" from-port="2" to-layer="230" to-port="0"/>
		<edge from-layer="157" from-port="0" to-layer="230" to-port="1"/>
		<edge from-layer="158" from-port="0" to-layer="230" to-port="2"/>
		<edge from-layer="159" from-port="0" to-layer="230" to-port="3"/>
		<edge from-layer="160" from-port="0" to-layer="230" to-port="4"/>
		<edge from-layer="236" from-port="0" to-layer="237" to-port="0"/>
		<edge from-layer="237" from-port="1" to-layer="238" to-port="0"/>
		<edge from-layer="235" from-port="0" to-layer="238" to-port="1"/>
		<edge from-layer="147" from-port="1" to-layer="239" to-port="0"/>
		<edge from-layer="238" from-port="2" to-layer="239" to-port="1"/>
		<edge from-layer="240" from-port="0" to-layer="241" to-port="0"/>
		<edge from-layer="239" from-port="2" to-layer="242" to-port="0"/>
		<edge from-layer="241" from-port="1" to-layer="242" to-port="1"/>
		<edge from-layer="242" from-port="2" to-layer="243" to-port="0"/>
		<edge from-layer="231" from-port="0" to-layer="243" to-port="1"/>
		<edge from-layer="232" from-port="0" to-layer="243" to-port="2"/>
		<edge from-layer="233" from-port="0" to-layer="243" to-port="3"/>
		<edge from-layer="234" from-port="0" to-layer="243" to-port="4"/>
		<edge from-layer="230" from-port="5" to-layer="244" to-port="0"/>
		<edge from-layer="243" from-port="5" to-layer="244" to-port="1"/>
		<edge from-layer="244" from-port="2" to-layer="245" to-port="0"/>
		<edge from-layer="245" from-port="1" to-layer="246" to-port="0"/>
		<edge from-layer="153" from-port="0" to-layer="246" to-port="1"/>
		<edge from-layer="154" from-port="0" to-layer="246" to-port="2"/>
		<edge from-layer="155" from-port="0" to-layer="246" to-port="3"/>
		<edge from-layer="156" from-port="0" to-layer="246" to-port="4"/>
		<edge from-layer="248" from-port="0" to-layer="249" to-port="0"/>
		<edge from-layer="249" from-port="1" to-layer="250" to-port="0"/>
		<edge from-layer="247" from-port="0" to-layer="250" to-port="1"/>
		<edge from-layer="246" from-port="5" to-layer="251" to-port="0"/>
		<edge from-layer="250" from-port="2" to-layer="251" to-port="1"/>
		<edge from-layer="252" from-port="0" to-layer="253" to-port="0"/>
		<edge from-layer="251" from-port="2" to-layer="254" to-port="0"/>
		<edge from-layer="253" from-port="1" to-layer="254" to-port="1"/>
		<edge from-layer="254" from-port="2" to-layer="255" to-port="0"/>
		<edge from-layer="255" from-port="1" to-layer="256" to-port="0"/>
		<edge from-layer="149" from-port="0" to-layer="256" to-port="1"/>
		<edge from-layer="150" from-port="0" to-layer="256" to-port="2"/>
		<edge from-layer="151" from-port="0" to-layer="256" to-port="3"/>
		<edge from-layer="152" from-port="0" to-layer="256" to-port="4"/>
		<edge from-layer="256" from-port="5" to-layer="257" to-port="0"/>
		<edge from-layer="292" from-port="0" to-layer="293" to-port="0"/>
		<edge from-layer="293" from-port="1" to-layer="294" to-port="0"/>
		<edge from-layer="291" from-port="0" to-layer="294" to-port="1"/>
		<edge from-layer="257" from-port="1" to-layer="295" to-port="0"/>
		<edge from-layer="294" from-port="2" to-layer="295" to-port="1"/>
		<edge from-layer="296" from-port="0" to-layer="297" to-port="0"/>
		<edge from-layer="295" from-port="2" to-layer="298" to-port="0"/>
		<edge from-layer="297" from-port="1" to-layer="298" to-port="1"/>
		<edge from-layer="298" from-port="2" to-layer="299" to-port="0"/>
		<edge from-layer="299" from-port="1" to-layer="300" to-port="0"/>
		<edge from-layer="287" from-port="0" to-layer="300" to-port="1"/>
		<edge from-layer="288" from-port="0" to-layer="300" to-port="2"/>
		<edge from-layer="289" from-port="0" to-layer="300" to-port="3"/>
		<edge from-layer="290" from-port="0" to-layer="300" to-port="4"/>
		<edge from-layer="302" from-port="0" to-layer="303" to-port="0"/>
		<edge from-layer="303" from-port="1" to-layer="304" to-port="0"/>
		<edge from-layer="301" from-port="0" to-layer="304" to-port="1"/>
		<edge from-layer="300" from-port="5" to-layer="305" to-port="0"/>
		<edge from-layer="304" from-port="2" to-layer="305" to-port="1"/>
		<edge from-layer="306" from-port="0" to-layer="307" to-port="0"/>
		<edge from-layer="305" from-port="2" to-layer="308" to-port="0"/>
		<edge from-layer="307" from-port="1" to-layer="308" to-port="1"/>
		<edge from-layer="308" from-port="2" to-layer="309" to-port="0"/>
		<edge from-layer="283" from-port="0" to-layer="309" to-port="1"/>
		<edge from-layer="284" from-port="0" to-layer="309" to-port="2"/>
		<edge from-layer="285" from-port="0" to-layer="309" to-port="3"/>
		<edge from-layer="286" from-port="0" to-layer="309" to-port="4"/>
		<edge from-layer="309" from-port="5" to-layer="311" to-port="0"/>
		<edge from-layer="310" from-port="0" to-layer="311" to-port="1"/>
		<edge from-layer="311" from-port="2" to-layer="312" to-port="0"/>
		<edge from-layer="279" from-port="0" to-layer="312" to-port="1"/>
		<edge from-layer="280" from-port="0" to-layer="312" to-port="2"/>
		<edge from-layer="281" from-port="0" to-layer="312" to-port="3"/>
		<edge from-layer="282" from-port="0" to-layer="312" to-port="4"/>
		<edge from-layer="308" from-port="2" to-layer="313" to-port="0"/>
		<edge from-layer="313" from-port="1" to-layer="316" to-port="0"/>
		<edge from-layer="314" from-port="0" to-layer="316" to-port="1"/>
		<edge from-layer="315" from-port="0" to-layer="316" to-port="2"/>
		<edge from-layer="312" from-port="5" to-layer="317" to-port="0"/>
		<edge from-layer="316" from-port="3" to-layer="317" to-port="1"/>
		<edge from-layer="319" from-port="0" to-layer="320" to-port="0"/>
		<edge from-layer="320" from-port="1" to-layer="321" to-port="0"/>
		<edge from-layer="318" from-port="0" to-layer="321" to-port="1"/>
		<edge from-layer="317" from-port="2" to-layer="322" to-port="0"/>
		<edge from-layer="321" from-port="2" to-layer="322" to-port="1"/>
		<edge from-layer="322" from-port="2" to-layer="323" to-port="0"/>
		<edge from-layer="323" from-port="1" to-layer="324" to-port="0"/>
		<edge from-layer="275" from-port="0" to-layer="324" to-port="1"/>
		<edge from-layer="276" from-port="0" to-layer="324" to-port="2"/>
		<edge from-layer="277" from-port="0" to-layer="324" to-port="3"/>
		<edge from-layer="278" from-port="0" to-layer="324" to-port="4"/>
		<edge from-layer="326" from-port="0" to-layer="327" to-port="0"/>
		<edge from-layer="327" from-port="1" to-layer="328" to-port="0"/>
		<edge from-layer="325" from-port="0" to-layer="328" to-port="1"/>
		<edge from-layer="324" from-port="5" to-layer="329" to-port="0"/>
		<edge from-layer="328" from-port="2" to-layer="329" to-port="1"/>
		<edge from-layer="329" from-port="2" to-layer="330" to-port="0"/>
		<edge from-layer="330" from-port="1" to-layer="331" to-port="0"/>
		<edge from-layer="271" from-port="0" to-layer="331" to-port="1"/>
		<edge from-layer="272" from-port="0" to-layer="331" to-port="2"/>
		<edge from-layer="273" from-port="0" to-layer="331" to-port="3"/>
		<edge from-layer="274" from-port="0" to-layer="331" to-port="4"/>
		<edge from-layer="313" from-port="1" to-layer="334" to-port="0"/>
		<edge from-layer="332" from-port="0" to-layer="334" to-port="1"/>
		<edge from-layer="333" from-port="0" to-layer="334" to-port="2"/>
		<edge from-layer="334" from-port="3" to-layer="337" to-port="0"/>
		<edge from-layer="335" from-port="0" to-layer="337" to-port="1"/>
		<edge from-layer="336" from-port="0" to-layer="337" to-port="2"/>
		<edge from-layer="331" from-port="5" to-layer="338" to-port="0"/>
		<edge from-layer="337" from-port="3" to-layer="338" to-port="1"/>
		<edge from-layer="309" from-port="5" to-layer="339" to-port="0"/>
		<edge from-layer="338" from-port="2" to-layer="339" to-port="1"/>
		<edge from-layer="339" from-port="2" to-layer="340" to-port="0"/>
		<edge from-layer="267" from-port="0" to-layer="340" to-port="1"/>
		<edge from-layer="268" from-port="0" to-layer="340" to-port="2"/>
		<edge from-layer="269" from-port="0" to-layer="340" to-port="3"/>
		<edge from-layer="270" from-port="0" to-layer="340" to-port="4"/>
		<edge from-layer="346" from-port="0" to-layer="347" to-port="0"/>
		<edge from-layer="347" from-port="1" to-layer="348" to-port="0"/>
		<edge from-layer="345" from-port="0" to-layer="348" to-port="1"/>
		<edge from-layer="257" from-port="1" to-layer="349" to-port="0"/>
		<edge from-layer="348" from-port="2" to-layer="349" to-port="1"/>
		<edge from-layer="350" from-port="0" to-layer="351" to-port="0"/>
		<edge from-layer="349" from-port="2" to-layer="352" to-port="0"/>
		<edge from-layer="351" from-port="1" to-layer="352" to-port="1"/>
		<edge from-layer="352" from-port="2" to-layer="353" to-port="0"/>
		<edge from-layer="341" from-port="0" to-layer="353" to-port="1"/>
		<edge from-layer="342" from-port="0" to-layer="353" to-port="2"/>
		<edge from-layer="343" from-port="0" to-layer="353" to-port="3"/>
		<edge from-layer="344" from-port="0" to-layer="353" to-port="4"/>
		<edge from-layer="340" from-port="5" to-layer="354" to-port="0"/>
		<edge from-layer="353" from-port="5" to-layer="354" to-port="1"/>
		<edge from-layer="354" from-port="2" to-layer="355" to-port="0"/>
		<edge from-layer="355" from-port="1" to-layer="356" to-port="0"/>
		<edge from-layer="263" from-port="0" to-layer="356" to-port="1"/>
		<edge from-layer="264" from-port="0" to-layer="356" to-port="2"/>
		<edge from-layer="265" from-port="0" to-layer="356" to-port="3"/>
		<edge from-layer="266" from-port="0" to-layer="356" to-port="4"/>
		<edge from-layer="358" from-port="0" to-layer="359" to-port="0"/>
		<edge from-layer="359" from-port="1" to-layer="360" to-port="0"/>
		<edge from-layer="357" from-port="0" to-layer="360" to-port="1"/>
		<edge from-layer="356" from-port="5" to-layer="361" to-port="0"/>
		<edge from-layer="360" from-port="2" to-layer="361" to-port="1"/>
		<edge from-layer="362" from-port="0" to-layer="363" to-port="0"/>
		<edge from-layer="361" from-port="2" to-layer="364" to-port="0"/>
		<edge from-layer="363" from-port="1" to-layer="364" to-port="1"/>
		<edge from-layer="364" from-port="2" to-layer="365" to-port="0"/>
		<edge from-layer="365" from-port="1" to-layer="366" to-port="0"/>
		<edge from-layer="259" from-port="0" to-layer="366" to-port="1"/>
		<edge from-layer="260" from-port="0" to-layer="366" to-port="2"/>
		<edge from-layer="261" from-port="0" to-layer="366" to-port="3"/>
		<edge from-layer="262" from-port="0" to-layer="366" to-port="4"/>
		<edge from-layer="366" from-port="5" to-layer="367" to-port="0"/>
		<edge from-layer="402" from-port="0" to-layer="403" to-port="0"/>
		<edge from-layer="403" from-port="1" to-layer="404" to-port="0"/>
		<edge from-layer="401" from-port="0" to-layer="404" to-port="1"/>
		<edge from-layer="367" from-port="1" to-layer="405" to-port="0"/>
		<edge from-layer="404" from-port="2" to-layer="405" to-port="1"/>
		<edge from-layer="406" from-port="0" to-layer="407" to-port="0"/>
		<edge from-layer="405" from-port="2" to-layer="408" to-port="0"/>
		<edge from-layer="407" from-port="1" to-layer="408" to-port="1"/>
		<edge from-layer="408" from-port="2" to-layer="409" to-port="0"/>
		<edge from-layer="409" from-port="1" to-layer="410" to-port="0"/>
		<edge from-layer="397" from-port="0" to-layer="410" to-port="1"/>
		<edge from-layer="398" from-port="0" to-layer="410" to-port="2"/>
		<edge from-layer="399" from-port="0" to-layer="410" to-port="3"/>
		<edge from-layer="400" from-port="0" to-layer="410" to-port="4"/>
		<edge from-layer="412" from-port="0" to-layer="413" to-port="0"/>
		<edge from-layer="413" from-port="1" to-layer="414" to-port="0"/>
		<edge from-layer="411" from-port="0" to-layer="414" to-port="1"/>
		<edge from-layer="410" from-port="5" to-layer="415" to-port="0"/>
		<edge from-layer="414" from-port="2" to-layer="415" to-port="1"/>
		<edge from-layer="416" from-port="0" to-layer="417" to-port="0"/>
		<edge from-layer="415" from-port="2" to-layer="418" to-port="0"/>
		<edge from-layer="417" from-port="1" to-layer="418" to-port="1"/>
		<edge from-layer="418" from-port="2" to-layer="419" to-port="0"/>
		<edge from-layer="393" from-port="0" to-layer="419" to-port="1"/>
		<edge from-layer="394" from-port="0" to-layer="419" to-port="2"/>
		<edge from-layer="395" from-port="0" to-layer="419" to-port="3"/>
		<edge from-layer="396" from-port="0" to-layer="419" to-port="4"/>
		<edge from-layer="419" from-port="5" to-layer="421" to-port="0"/>
		<edge from-layer="420" from-port="0" to-layer="421" to-port="1"/>
		<edge from-layer="421" from-port="2" to-layer="422" to-port="0"/>
		<edge from-layer="389" from-port="0" to-layer="422" to-port="1"/>
		<edge from-layer="390" from-port="0" to-layer="422" to-port="2"/>
		<edge from-layer="391" from-port="0" to-layer="422" to-port="3"/>
		<edge from-layer="392" from-port="0" to-layer="422" to-port="4"/>
		<edge from-layer="418" from-port="2" to-layer="423" to-port="0"/>
		<edge from-layer="423" from-port="1" to-layer="426" to-port="0"/>
		<edge from-layer="424" from-port="0" to-layer="426" to-port="1"/>
		<edge from-layer="425" from-port="0" to-layer="426" to-port="2"/>
		<edge from-layer="422" from-port="5" to-layer="427" to-port="0"/>
		<edge from-layer="426" from-port="3" to-layer="427" to-port="1"/>
		<edge from-layer="429" from-port="0" to-layer="430" to-port="0"/>
		<edge from-layer="430" from-port="1" to-layer="431" to-port="0"/>
		<edge from-layer="428" from-port="0" to-layer="431" to-port="1"/>
		<edge from-layer="427" from-port="2" to-layer="432" to-port="0"/>
		<edge from-layer="431" from-port="2" to-layer="432" to-port="1"/>
		<edge from-layer="432" from-port="2" to-layer="433" to-port="0"/>
		<edge from-layer="433" from-port="1" to-layer="434" to-port="0"/>
		<edge from-layer="385" from-port="0" to-layer="434" to-port="1"/>
		<edge from-layer="386" from-port="0" to-layer="434" to-port="2"/>
		<edge from-layer="387" from-port="0" to-layer="434" to-port="3"/>
		<edge from-layer="388" from-port="0" to-layer="434" to-port="4"/>
		<edge from-layer="436" from-port="0" to-layer="437" to-port="0"/>
		<edge from-layer="437" from-port="1" to-layer="438" to-port="0"/>
		<edge from-layer="435" from-port="0" to-layer="438" to-port="1"/>
		<edge from-layer="434" from-port="5" to-layer="439" to-port="0"/>
		<edge from-layer="438" from-port="2" to-layer="439" to-port="1"/>
		<edge from-layer="439" from-port="2" to-layer="440" to-port="0"/>
		<edge from-layer="440" from-port="1" to-layer="441" to-port="0"/>
		<edge from-layer="381" from-port="0" to-layer="441" to-port="1"/>
		<edge from-layer="382" from-port="0" to-layer="441" to-port="2"/>
		<edge from-layer="383" from-port="0" to-layer="441" to-port="3"/>
		<edge from-layer="384" from-port="0" to-layer="441" to-port="4"/>
		<edge from-layer="423" from-port="1" to-layer="444" to-port="0"/>
		<edge from-layer="442" from-port="0" to-layer="444" to-port="1"/>
		<edge from-layer="443" from-port="0" to-layer="444" to-port="2"/>
		<edge from-layer="444" from-port="3" to-layer="447" to-port="0"/>
		<edge from-layer="445" from-port="0" to-layer="447" to-port="1"/>
		<edge from-layer="446" from-port="0" to-layer="447" to-port="2"/>
		<edge from-layer="441" from-port="5" to-layer="448" to-port="0"/>
		<edge from-layer="447" from-port="3" to-layer="448" to-port="1"/>
		<edge from-layer="419" from-port="5" to-layer="449" to-port="0"/>
		<edge from-layer="448" from-port="2" to-layer="449" to-port="1"/>
		<edge from-layer="449" from-port="2" to-layer="450" to-port="0"/>
		<edge from-layer="377" from-port="0" to-layer="450" to-port="1"/>
		<edge from-layer="378" from-port="0" to-layer="450" to-port="2"/>
		<edge from-layer="379" from-port="0" to-layer="450" to-port="3"/>
		<edge from-layer="380" from-port="0" to-layer="450" to-port="4"/>
		<edge from-layer="450" from-port="5" to-layer="451" to-port="0"/>
		<edge from-layer="367" from-port="1" to-layer="451" to-port="1"/>
		<edge from-layer="451" from-port="2" to-layer="452" to-port="0"/>
		<edge from-layer="452" from-port="1" to-layer="453" to-port="0"/>
		<edge from-layer="373" from-port="0" to-layer="453" to-port="1"/>
		<edge from-layer="374" from-port="0" to-layer="453" to-port="2"/>
		<edge from-layer="375" from-port="0" to-layer="453" to-port="3"/>
		<edge from-layer="376" from-port="0" to-layer="453" to-port="4"/>
		<edge from-layer="455" from-port="0" to-layer="456" to-port="0"/>
		<edge from-layer="456" from-port="1" to-layer="457" to-port="0"/>
		<edge from-layer="454" from-port="0" to-layer="457" to-port="1"/>
		<edge from-layer="453" from-port="5" to-layer="458" to-port="0"/>
		<edge from-layer="457" from-port="2" to-layer="458" to-port="1"/>
		<edge from-layer="459" from-port="0" to-layer="460" to-port="0"/>
		<edge from-layer="458" from-port="2" to-layer="461" to-port="0"/>
		<edge from-layer="460" from-port="1" to-layer="461" to-port="1"/>
		<edge from-layer="461" from-port="2" to-layer="462" to-port="0"/>
		<edge from-layer="462" from-port="1" to-layer="463" to-port="0"/>
		<edge from-layer="369" from-port="0" to-layer="463" to-port="1"/>
		<edge from-layer="370" from-port="0" to-layer="463" to-port="2"/>
		<edge from-layer="371" from-port="0" to-layer="463" to-port="3"/>
		<edge from-layer="372" from-port="0" to-layer="463" to-port="4"/>
		<edge from-layer="463" from-port="5" to-layer="464" to-port="0"/>
		<edge from-layer="464" from-port="1" to-layer="467" to-port="0"/>
		<edge from-layer="466" from-port="0" to-layer="467" to-port="1"/>
		<edge from-layer="467" from-port="2" to-layer="469" to-port="0"/>
		<edge from-layer="468" from-port="0" to-layer="469" to-port="1"/>
		<edge from-layer="471" from-port="0" to-layer="472" to-port="0"/>
		<edge from-layer="472" from-port="1" to-layer="473" to-port="0"/>
		<edge from-layer="470" from-port="0" to-layer="473" to-port="1"/>
		<edge from-layer="469" from-port="2" to-layer="474" to-port="0"/>
		<edge from-layer="473" from-port="2" to-layer="474" to-port="1"/>
		<edge from-layer="475" from-port="0" to-layer="476" to-port="0"/>
		<edge from-layer="474" from-port="2" to-layer="477" to-port="0"/>
		<edge from-layer="476" from-port="1" to-layer="477" to-port="1"/>
		<edge from-layer="477" from-port="2" to-layer="479" to-port="0"/>
		<edge from-layer="478" from-port="0" to-layer="479" to-port="1"/>
		<edge from-layer="479" from-port="2" to-layer="480" to-port="0"/>
	</edges>
	<meta_data>
		<MO_version value="custom_HEAD_0e242b324458ed332f0907ac6d88fc24b610d9b9"/>
		<Runtime_version value="2022.3.0-000-0e242b32445-HEAD"/>
		<legacy_path value="True"/>
		<cli_parameters>
			<caffe_parser_path value="DIR"/>
			<data_type value="FP16"/>
			<disable_nhwc_to_nchw value="False"/>
			<disable_omitting_optional value="False"/>
			<disable_resnet_optimization value="False"/>
			<disable_weights_compression value="False"/>
			<enable_concat_optimization value="False"/>
			<enable_flattening_nested_params value="False"/>
			<enable_ssd_gluoncv value="False"/>
			<extensions value="['/opt/home/sys_k8sworker/workspace/DL-Benchmark/try/convert']"/>
			<framework value="onnx"/>
			<input value="actual_input"/>
			<input_model value="DIR/handwritten-simplified-chinese-recognition-0001.onnx"/>
			<input_model_is_text value="False"/>
			<input_shape value="[1,1,96,2000]"/>
			<k value="DIR/CustomLayersMapping.xml"/>
			<layout value="actual_input(nchw)"/>
			<legacy_mxnet_model value="False"/>
			<log_level value="ERROR"/>
			<mean_values value="actual_input[127.5]"/>
			<model_name value="handwritten-simplified-chinese-recognition-0001"/>
			<output value="output"/>
			<output_dir value="DIR"/>
			<progress value="False"/>
			<remove_memory value="False"/>
			<remove_output_softmax value="False"/>
			<reverse_input_channels value="False"/>
			<save_params_from_nd value="False"/>
			<scale_values value="actual_input[127.5]"/>
			<silent value="True"/>
			<source_layout value="()"/>
			<static_shape value="False"/>
			<stream_output value="False"/>
			<target_layout value="()"/>
			<transform value=""/>
			<use_legacy_frontend value="False"/>
			<use_new_frontend value="False"/>
			<unset unset_cli_parameters="batch, counts, disable_fusing, finegrain_fusing, freeze_placeholder_with_value, input_checkpoint, input_meta_graph, input_proto, input_symbol, mean_file, mean_file_offsets, nd_prefix_name, pretrained_model_name, saved_model_dir, saved_model_tags, scale, tensorboard_logdir, tensorflow_custom_layer_libraries, tensorflow_custom_operations_config_update, tensorflow_object_detection_api_pipeline_config, tensorflow_use_custom_operations_config, transformations_config"/>
		</cli_parameters>
	</meta_data>
	<quantization_parameters>
		<config>{
		'compression': {
			'algorithms': [
				{
					'name': 'DefaultQuantization',
					'params': {
						'num_samples_for_tuning': 2000,
						'preset': 'performance',
						'stat_subset_size': 300,
						'use_layerwise_tuning': false
					}
				}
			],
			'dump_intermediate_model': true,
			'target_device': 'ANY'
		},
		'engine': {
			'models': [
				{
					'name': 'handwritten-simplified-chinese-recognition-0001',
					'launchers': [
						{
							'framework': 'openvino',
							'adapter': 'ctc_greedy_search_decoder',
							'device': 'cpu'
						}
					],
					'datasets': [
						{
							'name': 'SCUT_EPT',
							'data_source': 'PATH',
							'annotation_conversion': {
								'converter': 'unicode_character_recognition',
								'decoding_char_file': 'PATH',
								'annotation_file': 'PATH'
							},
							'annotation': 'PATH',
							'dataset_meta': 'PATH',
							'preprocessing': [
								{
									'type': 'bgr_to_gray'
								},
								{
									'type': 'resize',
									'interpolation': 'AREA',
									'aspect_ratio_scale': 'width',
									'size': 96
								},
								{
									'type': 'padding',
									'use_numpy': true,
									'numpy_pad_mode': 'edge',
									'dst_height': 96,
									'dst_width': 2000,
									'pad_type': 'right_bottom'
								}
							],
							'metrics': [
								{
									'type': 'label_level_recognition_accuracy',
									'reference': 0.7531
								}
							],
							'_command_line_mapping': {
								'decoding_char_file': 'PATH',
								'annotation_file': 'PATH'
							}
						}
					]
				}
			],
			'stat_requests_number': null,
			'eval_requests_number': null,
			'type': 'accuracy_checker'
		}
	}</config>
		<version value="invalid version"/>
		<cli_params value="{'quantize': None, 'preset': None, 'model': None, 'weights': None, 'name': None, 'engine': None, 'ac_config': None, 'max_drop': None, 'evaluate': False, 'output_dir': 'PATH', 'direct_dump': True, 'log_level': 'INFO', 'pbar': False, 'stream_output': False, 'keep_uncompressed_weights': False, 'data_source': None}"/>
	</quantization_parameters>
</net>
